Model/models/model_LSTM.npz (npz, 4457 bytes, 13 tensors)

WF f8 [1, 48]
0.3266793503005476 -0.2716308865488065 -0.42116431459760445 0.6751841681139749 -0.15718868975850778 -0.06131105195620786 0.2728588719718205 -0.11201489989827877
0.06496621095570831 -0.48723749881578043 0.4476196107257825 0.6155512198207382 -0.411885939394931 0.6016878870588679 -0.07073988300391887 -0.11698119514066307
-0.06866592234093151 0.20853331734008232 -0.777303295052278 0.008120604082763496 -0.2811441347435708 0.17474394254878448 0.2483437906879452 0.42408874329361923
-0.06639540442157357 -0.5681841027132161 -0.42140746593524325 0.16871279852644086 -0.5409892026452926 -0.0938900689527536 0.16010390430246943 0.014608195630097468
0.6145492125547182 0.2675894519449035 0.3478391827368592 0.23263663622465997 -0.46215664436052173 -0.5680512400571522 0.2600525086369462 -0.3550727769537742
0.0035652725291256903 -0.31938438633707017 -0.05601205938567468 -0.1428100064041148 0.2913411408717285 0.4409926936649568 0.37922027503927114 -0.2739339191474863
00000000: b870 7481 50e8 d43f 0ae1 9383 6662 d1bf
00000010: 0718 5c2b 5bf4 dabf 9772 1ad4 1b9b e53f
00000020: 412d e84c c21e c4bf db0e 1286 2964 afbf
00000030: 03b7 e20e 8576 d13f 7b52 ba2b 02ad bcbf
00000040: 9059 6627 a0a1 b03f 851c b330 e62e dfbf
00000050: 2264 47b9 cca5 dc3f 4693 c478 98b2 e33f
00000060: b88a d8d7 565c dabf 5526 aaf4 0641 e33f
00000070: 9852 064c 021c b2bf d84a 60c7 7af2 bdbf
00000080: 69d1 cd02 1794 b1bf c10f 0d41 38b1 ca3f
00000090: 8452 ea28 abdf e8bf 8182 ac07 89a1 803f
000000a0: 08e5 0bf8 43fe d1bf a9e7 356f 025e c63f
000000b0: b4ae 95b5 bac9 cf3f b60f c31c 4524 db3f
000000c0: 0269 980a 4aff b0bf ef54 686d 902e e2bf
000000d0: cada 1e05 57f8 dabf c539 0b88 6198 c53f
000000e0: 8338 9b96 c84f e1bf 353e 92f7 2d09 b8bf
000000f0: 5773 78e4 487e c43f 22f3 e0d3 e6ea 8d3f
00000100: e98f 361c 63aa e33f 3be8 3682 2f20 d13f
00000110: c4d1 8746 ff42 d63f c2da 378c 09c7 cd3f
00000120: 3215 4a76 f993 ddbf 46ed 4fcb 792d e2bf
00000130: 06a9 f546 b3a4 d03f e3d8 2d2b 83b9 d6bf
00000140: 73d9 3e1d eb34 6d3f 7fed 8a35 cb70 d4bf
00000150: 5375 7cd6 9cad acbf 6c0b 8629 9947 c2bf
00000160: 6f7f 0150 55a5 d23f 4b38 446b 3939 dc3f
00000170: da85 d11d 2545 d83f 5c3a 0022 2288 d1bf

UF f8 [1, 1]
0.15824382029726353
00000000: be44 7c60 5541 c43f

BF f8 [1, 1]
0.028063842649470098
00000000: 71ac 8499 c4bc 9c3f

WI f8 [1, 48]
-0.029128742843531466 0.019546501758775814 0.18041062733568267 -0.14079071402598034 0.33514830782580235 0.19458852697236118 0.5832905530456475 -0.16929769383180063
0.17666483116475806 0.5349672172416018 0.13896518442629446 0.4262752880494808 0.3757080250416077 -0.16015785983392042 -0.3656948058882501 -0.2219380104137732
0.5553099269225904 0.08529063958430934 -0.04337016142945536 0.5630070863789992 0.12533442046887935 0.4540125101900392 0.6027403245367764 0.2858253094376542
0.5236735738887339 0.02934536382056698 0.2587040997716837 0.1635291675230001 -0.12740700148784936 0.507506365695674 0.004995905650559116 -0.15114954109675918
-0.11907012013858506 0.2891083204208124 -0.2813931145595187 0.359754761762423 0.5861823789707561 -0.01990607106857347 0.5326651954161961 -0.08641857505008128
0.01345072722716506 0.1321149169449771 0.24498309318061687 0.07136321649866618 -0.11722489592077054 0.255856127675897 -0.2478771585082306 0.10358798288076497
00000000: d4d6 8bd7 ecd3 9dbf e078 3887 ff03 943f
00000010: 0ff9 2008 b217 c73f b939 291c 6e05 c2bf
00000020: dffa 5ae3 1173 d53f 1cf5 c2df 46e8 c83f
00000030: a9b2 2cf3 50aa e23f eddc 25fd 8bab c5bf
00000040: 205e 1a04 f49c c63f 8a83 cf91 731e e13f
00000050: a05f 3275 9cc9 c13f f2fd 5025 1848 db3f
00000060: 4680 19ac 990b d83f a18e 1781 0d80 c4bf
00000070: c4da e62f 8b67 d7bf 12b5 3bf8 7668 ccbf
00000080: 87da e852 19c5 e13f 6d66 ab7b 9bd5 b53f
00000090: ad6a ec21 9d34 a6bf e33f ed6f 2704 e23f
000000a0: b10c 7d52 f50a c03f f06d cf7c 8a0e dd3f
000000b0: 4cb5 bb13 a649 e33f f1d7 193d f64a d23f
000000c0: ac35 3415 efc1 e03f 461f 9807 b60c 9e3f
000000d0: 7912 f7a3 9b8e d03f b508 3a15 86ee c43f
000000e0: 75fb 5564 df4e c0bf 7097 65fd 7d3d e03f
000000f0: 31fc 2036 9676 743f 5172 e83f de58 c3bf
00000100: 3e0f ed1f 617b bebf 435e 4d2f c080 d23f
00000110: df92 1644 5802 d2bf 6764 16d6 3806 d73f
00000120: d077 658c 01c2 e23f 86ed ecd0 4162 94bf
00000130: daf5 40e1 970b e13f b565 9b19 871f b6bf
00000140: 607d 620c 0e8c 8b3f d7d4 cb3f 24e9 c03f
00000150: 4d4f a422 9b5b cf3f 91c7 ff18 dc44 b23f
00000160: f6b7 4166 7302 bebf ef58 3661 f25f d03f
00000170: e6ef 9b50 70ba cfbf 2743 bbf6 bd84 ba3f

UI f8 [1, 1]
0.11079404057019111
00000000: 0536 d78c ff5c bc3f

BI f8 [1, 1]
0.3977650988021959
00000000: f81e b6be fb74 d93f

WG f8 [1, 48]
-0.19216051050051045 -0.32478570372380844 -0.35778404084489795 0.4632158153324683 -0.8113793578270041 1.818140270904608 -0.07518697915363087 0.425373353122357
-0.6079647322278605 -0.7080062307406338 0.49203776861633675 0.7756618915510393 0.7679491128505208 -0.18961435372495342 -0.1265385401799371 -0.6614037533467935
-0.021986842738478767 0.39452375331856343 -0.49818301825474337 0.5607587259794132 -0.5718903721887681 -1.3411833872595729 0.31585784592988136 0.37943647989897894
-1.3453391064761717 -0.3597336738521114 0.24818106699726852 -0.26906279511614695 0.24519144354160174 -0.8895914785631023 -0.38345974889695317 0.4204114587930981
0.4144498178755843 0.7202594430720282 -0.43581938993456454 0.5306330690674159 0.17116860603244552 -0.6075366099773416 0.19089016577409262 0.05311365725933266
-0.4833237049987693 -0.21036629191984382 0.6346646173447398 -0.8980897766522399 0.6512803858311511 -0.8347736445534372 -0.38507039809478816 0.4884408704863909
00000000: 7957 1732 b798 c8bf 40ef ecf9 49c9 d4bf
00000010: 8369 9d08 efe5 d6bf 83f2 75f2 53a5 dd3f
00000020: e086 d0d7 d1f6 e9bf c536 b140 1a17 fd3f
00000030: d4c4 8c30 743f b3bf 4606 1028 5139 db3f
00000040: 2848 4174 7274 e3bf e8a5 ccae fca7 e6bf
00000050: a2a7 26fb 8b7d df3f 05e3 1ee3 38d2 e83f
00000060: 29ed 9504 0a93 e83f ade8 0c7c 4845 c8bf
00000070: 1ad2 e035 6a32 c0bf a56f 4234 382a e5bf
00000080: ab28 040a b883 96bf cfe5 7f8e e03f d93f
00000090: 8de8 b406 3be2 dfbf 0fe7 a048 bcf1 e13f
000000a0: 3d56 ae09 ed4c e2bf 707e 23b6 7c75 f5bf
000000b0: d50b 9dd3 0337 d43f 99d4 04f2 af48 d83f
000000c0: 3385 854c 8286 f5bf 72be 1d63 e005 d7bf
000000d0: f5ac 1eaf 65c4 cf3f 5e07 6628 5338 d1bf
000000e0: 3d96 a2e7 6e62 cf3f 6852 678c 8877 ecbf
000000f0: f910 36c2 9a8a d8bf 0d52 9876 05e8 da3f
00000100: 6ef6 6687 5886 da3f 2625 1488 5d0c e73f
00000110: f7d2 ae02 77e4 dbbf da42 ba33 f2fa e03f
00000120: 0771 8156 dae8 c53f 6436 df9d f070 e3bf
00000130: fe59 90c5 166f c83f dab0 cc99 b631 ab3f
00000140: 247b 968c c6ee debf 8dfe fc5b 48ed cabf
00000150: 8191 ed2b 2c4f e43f 6ffc 72c5 26bd ecbf
00000160: 4a79 b5f6 49d7 e43f 856e dd37 77b6 eabf
00000170: 6263 9e4f fea4 d8bf 5b34 317f 9d42 df3f

UG f8 [1, 1]
-0.21734788515406472
00000000: 5ab5 4b35 0ed2 cbbf

BG f8 [1, 1]
0.12389741762265997
00000000: a388 bfbc bdb7 bf3f

WO f8 [1, 48]
-0.7421966016456105 0.0435841418348618 -0.07077509983512936 0.9898844390980505 -0.14413670886249733 -0.27274771703295714 0.00813090831346943 0.0683050254815729
0.13126614527864489 -0.12920457149335002 -0.036712378527425725 0.0911053506636058 0.33840629276868867 0.870200174166871 -0.07036666924477544 -0.8638847399501353
0.9219582558842017 0.1143981269875133 -0.32562670519718107 0.08880485728556607 0.3738830258978807 -0.21106768787572414 0.027803370843939645 0.6153625851614756
-0.3178722091174896 0.009168936215125451 0.41687421306960887 0.15235509988907361 0.49271397487680246 -0.6314263320486759 0.833681638896625 0.40618174379575056
0.4543861238917105 0.3776573717551938 0.6846068943469534 0.04042051633598933 0.5250939224208573 -0.3071946045396038 -0.05671156549761364 -0.07583759042632524
0.26593150787188774 0.007610328101712445 -0.1140749275847884 0.13768058024058147 0.7252596092964829 0.11446183169609708 0.12463582653547627 -0.4701034532270712
00000000: c8a5 6816 13c0 e7bf 4e23 9c1f a950 a63f
00000010: 64bb 2923 511e b2bf 91da 9721 22ad ef3f
00000020: 05d7 5b59 1273 c2bf 0dc6 2dd7 b274 d1bf
00000030: 4c52 580a f0a6 803f 7f86 982a 707c b13f
00000040: 149a 853c 54cd c03f 7e60 8780 c689 c0bf
00000050: e36f 4402 f7cb a2bf 973e 9725 ae52 b73f
00000060: 85ef 0cde 72a8 d53f 9aa5 2009 aed8 eb3f
00000070: 9a7f 22cf 8c03 b2bf 6e2d 339c f1a4 ebbf
00000080: 5698 a999 ae80 ed3f f990 2216 3249 bd3f
00000090: 0cac 6164 11d7 d4bf d777 c445 eabb b63f
000000a0: e4b2 3012 b3ed d73f bb93 5518 4404 cbbf
000000b0: 931e f9a1 7c78 9c3f ed6a 4ee0 0cb1 e33f
000000c0: 8ae1 9dad 0458 d4bf 6aef 76c9 29c7 823f
000000d0: 4d80 eb2d 11ae da3f 5581 b335 5f80 c33f
000000e0: ae31 1832 a088 df3f 006f bffe a434 e4bf
000000f0: 22c6 ca1d 85ad ea3f a270 75b6 e1fe d93f
00000100: 1ec0 7789 a914 dd3f 2f0a 32d3 892b d83f
00000110: e8c2 bab7 4ce8 e53f 9342 8077 ffb1 a43f
00000120: ba07 04c5 91cd e03f 0a56 008f 13a9 d3bf
00000130: 4903 3c5e 4c09 adbf 2a42 b0a2 176a b3bf
00000140: 4f49 5296 0505 d13f 625f f0e4 012c 7f3f
00000150: 162e 45b3 0334 bdbf a3bb b66a 849f c13f
00000160: 6038 e1a3 5335 e73f f465 c6df 5e4d bd3f
00000170: 8b3a e12e 22e8 bf3f 3534 56cb 2c16 debf

UO f8 [1, 1]
-0.3541017105318273
00000000: 6347 8c38 9aa9 d6bf

BO f8 [1, 1]
0.3822369315420758
00000000: 99fb 12e4 9176 d83f

accuracy f8 []
72.03
00000000: 52b8 1e85 eb01 5240
