Model/models/model_LSTM.npz (npz, 5623 bytes, 17 tensors)

WF f8 [1, 48]
0	0x3fc585a465cdbcf1	0.16814093562013668
1	0x3fc68188c31d3852	0.1758280708986058
2	0x3fb09b4b4ca3bc5e	0.06486960049709142
3	0xbfcb02a1ecb8ca59	-0.2110178380840633
4	0xbfcff0eda2264007	-0.24954004685832862
5	0xbfa243c6c6a12bd9	-0.03567334341695245
6	0x3fd6928857b3ea52	0.3526936394188499
7	0x3fdab284e3d45ef8	0.41714594124776694
8	0xbfd0a4053897939b	-0.2600110104233921
9	0xbfd0f4b36d144bc0	-0.26493535663865586
10	0xbf5fdb8b9fedd197	-0.0019444335482293512
11	0x3fa78ce9dfa83e29	0.045996960212616074
12	0xbfd4657c50f648ee	-0.31869419008684374
13	0xbfd81db3e3190d72	-0.37681290795827416
14	0x3fce1ba2780a256f	0.23521834241209258
15	0xbfd3f44f7cd0ad1b	-0.31178652943590784
16	0xbfc2f667d2483cb1	-0.14814470069584254
17	0x3fb0fe251102f3ed	0.06637794175453822
18	0xbfbb21121d6a9b66	-0.10597336977171565
19	0x3fb6d01fd8f680b0	0.08911322638459995
20	0xbfd06705bce4be1c	-0.2562879891074503
21	0xbfbaf449b772ab24	-0.1052900383826168
22	0xbfd8b5f3c912ff7c	-0.38610548626092345
23	0x3fcb16c4b08dd2b9	0.2116323339538633
24	0x3fc348e550d2e7b1	0.15066210218884415
25	0xbfc843cf81379996	-0.18956941422875379
26	0x3fd1c9ae5288f8bd	0.2779346281057647
27	0xbfc298267d98d774	-0.14526826031368112
28	0x3fd00e306bc4696c	0.25086603664535434
29	0xbfcb27517d63f30a	-0.21213739988879637
30	0x3fc2d075b0186e52	0.14698668573770363
31	0xbfaae5e364e327d7	-0.05253515821966886
32	0xbfaaa348a1f0e296	-0.05202700592821434
33	0x3fcdfc5283213492	0.234262765911272
34	0x3fc643335f3b693f	0.17392580175403258
35	0xbfc835c6ca54b561	-0.18914112929761998
36	0xbfcf5ba1c29bbabe	-0.24498388292655265
37	0x3f92d46cc07478d9	0.01838846134807501
38	0x3fd94e6a7523c882	0.39541112365180464
39	0xbfa3f2f76b35c9be	-0.03896306213109167
40	0x3fc40220f5156f57	0.1563149639795209
41	0xbfc3401faca03db1	-0.15039440087319414
42	0x3f7db98964a0f221	0.007257019702646279
43	0xbfd3d5f41a465db9	-0.3099336868849281
44	0x3fadb07d8b646cbe	0.057987139955196096
45	0x3fd0c2a6e7b88c60	0.26188061360352854
46	0x3fc921ef638bdde2	0.19634811745321118
47	0x3fa63d3ac225137d	0.04343589420253744

UF f8 [1, 1]
0	0xbfd117deccfc73d7	-0.2670819284265326

BF f8 [1, 1]
0	0x3fd1ab026687decc	0.2760625840451041

WI f8 [1, 48]
0	0xbfb0f3349f1d4088	-0.06621102223039277
1	0xbfb9ccdb19b2952e	-0.10078210236914195
2	0x3fcf565696da4103	0.2448223339638461
3	0x3fb3d87dda2f1d79	0.0775221498180282
4	0xbfb534ba46a0cdfb	-0.08283580993957422
5	0x3fb2397ccd1fe4f6	0.07118968971180437
6	0x3fc3e43da0c4c859	0.15540285444291405
7	0xbfab2da1966e8b59	-0.05308251344037868
8	0xbfb40f407fac62ed	-0.07835772625947941
9	0xbfafe57e5bc8b6d2	-0.06229777212534561
10	0xbfb345426320328c	-0.0752755634313848
11	0x3fcbf4b7b8383059	0.2184056901463716
12	0x3fa25b9f25f399fa	0.035855267889747425
13	0xbfc39b34f9701e75	-0.1531740396460354
14	0xbfb88e3da7c255c9	-0.09592042298967053
15	0x3fbb5aa0bccf5005	0.10685162171949976
16	0xbfd72dd37e7ff8c8	-0.36217200616364353
17	0x3fd363d9ee397306	0.30296943916418717
18	0x3fc9441e5c3f54d6	0.19739131454722408
19	0x3fcd5a8b13a959c7	0.22932566127810913
20	0xbfb82d1e6b878b71	-0.09443845868331181
21	0xbfd377a1d8c9a0f8	-0.3041767708841827
22	0xbfc54d5d313792c1	-0.16642346289804347
23	0x3fab2cae3a009f25	0.05307526071584182
24	0xbf702dee43f60923	-0.003950052952293145
25	0x3fddf86d02a67e9e	0.46828770884347104
26	0x3fd40f7c932f8549	0.31344522832485616
27	0x3fb2b944bed5e6f7	0.07313947352477244
28	0x3fcf6e68eeb42d14	0.24555694251498805
29	0xbfcc8ff3a170f780	-0.2231430567061885
30	0xbf88fbd879302c5b	-0.012199107359285024
31	0xbfc9fc6df639769e	-0.20301603815726293
32	0x3fd50ced80deba07	0.3289140470978115
33	0x3f93d4688ad4c7e4	0.019364961122114624
34	0xbfbcc0161160d5e6	-0.11230600284837741
35	0xbf9a2fbcda4600c9	-0.025572729894975752
36	0xbfc38fe1f527508d	-0.15282844992055225
37	0xbfd06cb16d365089	-0.25663409867525694
38	0xbfd173371d80d3d0	-0.2726571834676266
39	0x3fb7fcbcc497050e	0.09370021628912559
40	0x3fc5900ccb0684d7	0.16845855630257375
41	0x3fb12241408b6625	0.06692893815797925
42	0xbf94b92575e31b60	-0.020237527199039262
43	0xbfbc8e86363d2d98	-0.11154974769777082
44	0x3fce20ac5ce12177	0.23537210974815156
45	0xbf919394c75cd3d1	-0.017164539974334595
46	0xbfb1b79bd1d6ffd8	-0.06920789597552301
47	0xbfc10181fb982811	-0.13285851273423124

UI f8 [1, 1]
0	0x3fd9010a87a44953	0.3906885456682591

BI f8 [1, 1]
0	0x3fb74edcc5c00452	0.09104709461100072

WG f8 [1, 48]
0	0xbfd0516e0d5af5b0	-0.25497008613805416
1	0xbf9e6b908abbad89	-0.029707201449964003
2	0x3f9cffed0bf4b6d9	0.028320030073863165
3	0x3fd3f1cb8270d953	0.3116329931102843
4	0xbfd15ea462a04ae1	-0.27140149718722567
5	0x3fccf9f962a2afc4	0.22637860599695447
6	0x3f86736b65c6d7a8	0.010962332766989949
7	0x3fb78181058e88cd	0.091819824082026
8	0x3fa8b91c16a0ae9c	0.04828727508751493
9	0xbfb96a2938458e56	-0.09927613853283765
10	0xbfd7a15c57c13cb1	-0.3692236763935837
11	0x3fc0cc9b093d3662	0.13124406767967672
12	0xbfdd863e9cdc11af	-0.4613186389763326
13	0xbfc4dce9cad87b0c	-0.16299173740932138
14	0xbf7f6b75f0baaca6	-0.007670841888891255
15	0xbfcab6d1531cc087	-0.20870415266245265
16	0xbfce46320890da3f	-0.23651719492200304
17	0xbfc7c8a253909b6f	-0.18581036644283297
18	0xbfd25970bed5705f	-0.2867090095148849
19	0xbfdf0be2d63c9544	-0.48510046884105784
20	0xbfdd11fb908fa2b5	-0.4542225753525984
21	0xbfc3a34ae613c32c	-0.15342079385984542
22	0x3fbc4c6d6f02b162	0.11054119072168114
23	0xbfd2f1fa6db9b3d9	-0.2960191794907679
24	0xbfbb14446da879f1	-0.10577800442886322
25	0xbf9bfb83f77e66a6	-0.027326642971820768
26	0xbfa75d18cf4f2043	-0.04563214808109752
27	0xbfc23708ffef0783	-0.1423045396496115
28	0x3fbd11f1826c83dd	0.11355504450013094
29	0xbf8bd5c8231d69af	-0.013591350146886364
30	0xbfc01bf3766a7eff	-0.12585299760848298
31	0x3fa69a5521eddd48	0.04414621390508927
32	0x3fd353fa063921b1	0.3020005284093044
33	0x3fb2014b7f948e09	0.07033225884202222
34	0xbf905a90e552f6a8	-0.01597048186953623
35	0x3fcc1e4efc52241e	0.21967494316439312
36	0x3f91d570008484d1	0.017415761977763126
37	0xbfe02f862fd2966c	-0.5058012899432476
38	0xbfca08841e9ed2d9	-0.2033848905099578
39	0x3fb0edab43307313	0.06612654104578679
40	0xbfd1c4aec10e6f0b	-0.2776295552555303
41	0xbfc4bab8885f1fef	-0.1619482675434933
42	0xbfbd0c0f1e8f2593	-0.11346525665353217
43	0x3fb88c299e6bf598	0.09588871114461595
44	0x3fdd3e4837283d11	0.4569263971943239
45	0xbfa5d3e27b5acbcb	-0.042632176931327224
46	0xbfdd2fdbd72bb804	-0.4560460664059749
47	0xbfc3bf0971e7ecb5	-0.15426748334707488

UG f8 [1, 1]
0	0xbfc015d3194ba224	-0.12566603407982868

BG f8 [1, 1]
0	0x3fe0e814b1b868f5	0.5283301802731147

WO f8 [1, 48]
0	0xbfd7f0a965a6012e	-0.37406382490736945
1	0xbfad95eb3f62da18	-0.057784415710035286
2	0x3fbbf6c35c101924	0.10923405645016665
3	0x3fc9c8226c0397bb	0.20142011903879883
4	0xbfdb3ac5085978f4	-0.42546201529866257
5	0x3fe2412afab672d0	0.5704550644619193
6	0xbfcc95dc8abbd0a5	-0.22332340978721735
7	0x3fc64ec75926293d	0.1742791352556398
8	0xbfb9fa0a78deb1b9	-0.10147157145428921
9	0xbf860119d0191abb	-0.010744287169598512
10	0xbfc5f8fd1fbf855f	-0.1716610341091309
11	0x3fd89933df29ce35	0.38435074609080583
12	0x3fbc5462b3e9af4f	0.11066262142565829
13	0x3fc038cb184955de	0.12673319517004605
14	0xbfc8cd0f322a789b	-0.19375791501528714
15	0xbfe226b168f4ea71	-0.5672232675490944
16	0xbfc542bab19ec0ca	-0.16609891579492447
17	0x3fcf9efc45b244ba	0.24703935053961407
18	0xbfdc985517ac48fd	-0.44679763137641243
19	0xbfe722483bb1d5d8	-0.7229348340903767
20	0xbfc660593923953b	-0.17481532373418837
21	0x3fb20f15be9ee814	0.07054267791582475
22	0x3fce766a0b0aa0d5	0.23798871554504922
23	0x3fd624160d120380	0.34595252300646706
24	0x3fe071257f932935	0.5138118259140244
25	0x3fd4fa215d041ca0	0.3277667435035685
26	0x3fb6b362ab89ee65	0.08867470443686327
27	0x3f9786463bfc62ca	0.022973153506515222
28	0x3fc52c9c5e5f9f79	0.16542391403276804
29	0xbf993b623e415039	-0.02464059357619439
30	0x3fc80983f68c9957	0.1877903894284809
31	0xbfa244b2652f9f38	-0.03568036542111347
32	0xbfc6e70650c4119a	-0.17892531341216228
33	0x3fe359acd4f0ba83	0.6046966704360134
34	0x3fd09f8b5ff8ee5f	0.2597378194074959
35	0x3fa8d77ed1200650	0.04851909926220499
36	0x3fcd9e3b9f3ceac0	0.23139138484278554
37	0x3fcdf01e3ddbc0b5	0.233890323833753
38	0x3fe189466d656aa1	0.5480072151797978
39	0x3fd19a8f5cd06e61	0.27505859435925656
40	0x3fa8597c62367248	0.047557723034718224
41	0xbfca7c34df1c70e2	-0.2069154824647575
42	0x3f8e3259347d97a8	0.014744469560991139
43	0x3fa44a9bb5c5d275	0.03963171571641492
44	0xbfcae93b718a50fe	-0.21024268192252998
45	0xbfc542c4379a4778	-0.16610005106900494
46	0xbfc083f9a3696d1f	-0.12902756194203222
47	0xbfe07a58206b86bf	-0.5149346001819238

UO f8 [1, 1]
0	0x3fe4746b01452fec	0.639211180191976

BO f8 [1, 1]
0	0x3fdd1cf3b37d6996	0.45489208725271035

Long_mem f8 [1, 1]
0	0x3fdb3cf98c4cc542	0.4255966062656463

short_mem f8 [1, 1]
0	0x3fd2bade98ccff98	0.29265561029387177

mean f4 [1, 48]
0	0x3efd26d8	0.49443698
1	0x3f02fdc2	0.51168454
2	0x3ef325ee	0.47489876
3	0x3f09654a	0.5367018
4	0x3efc524d	0.4928154
5	0x3f17edb0	0.5934706
6	0x3ef5a8b7	0.47980282
7	0x3edf5a70	0.43623686
8	0x3eb8e4b0	0.36111975
9	0x3f06b04e	0.5261277
10	0x3eea44a8	0.45755506
11	0x3ed0188a	0.40643722
12	0x3f0d997e	0.55312335
13	0x3de22fd0	0.11044276
14	0x3ee06d9a	0.4383362
15	0x3ebc72b9	0.36806276
16	0x3f141a59	0.57852703
17	0x3d75065b	0.059820514
18	0x3ec6c643	0.38823137
19	0x3f01e8ff	0.5074615
20	0x3e9d3146	0.30701655
21	0x3ef8b060	0.48572063
22	0x3e51b738	0.20480049
23	0x3f171ede	0.59031475
24	0x3e790b61	0.24320747
25	0x3ed83d6a	0.42234355
26	0x3ee662ee	0.44997352
27	0x3ebd3ccb	0.36960444
28	0x3efbf79c	0.49212348
29	0x3ef59f65	0.4797317
30	0x3ea2a669	0.31767586
31	0x3e19bb28	0.150128
32	0x3f0048de	0.50111187
33	0x3f0d873b	0.5528447
34	0x3f0a571a	0.54039156
35	0x3ee44f44	0.44591725
36	0x3ee4af56	0.4466502
37	0x3e6d1549	0.23152651
38	0x3ed8a7d9	0.42315558
39	0x3edd0aa8	0.43172193
40	0x3efe6623	0.496873
41	0x3ef665ba	0.48124486
42	0x3f22b15b	0.6355187
43	0x3f1bee28	0.6091027
44	0x3ef064a8	0.46951795
45	0x3e996eb0	0.2996726
46	0x3ecfc185	0.4057733
47	0x3f02a74a	0.5103651

std f4 [1, 48]
0	0x3e53eda4	0.20696121
1	0x3e4f1fc8	0.20226967
2	0x3e48dee7	0.1961628
3	0x3e86c451	0.26321653
4	0x3e5a12f3	0.21296291
5	0x3e4d02a4	0.20020539
6	0x3e689336	0.22712407
7	0x3e56d8ff	0.20981215
8	0x3e4ae77a	0.19814864
9	0x3e4c3830	0.19943309
10	0x3e517466	0.20454559
11	0x3e20648a	0.15663353
12	0x3e5b8392	0.21436909
13	0x3dc062b8	0.09393829
14	0x3e84f806	0.25970477
15	0x3e562b36	0.20914921
16	0x3e80c255	0.25148264
17	0x3dc9c73f	0.09852456
18	0x3e32c68d	0.17458554
19	0x3ebe1f83	0.37133417
20	0x3e897754	0.26848853
21	0x3e7eee96	0.24895701
22	0x3dc6451f	0.096811526
23	0x3e43dc95	0.19127114
24	0x3e2efaf7	0.17087923
25	0x3e8985fe	0.2686004
26	0x3e9ecb32	0.310144
27	0x3e691822	0.22763112
28	0x3e5f6df0	0.21819282
29	0x3e87568d	0.2643322
30	0x3e50f5bc	0.2040624
31	0x3dc94d50	0.09829199
32	0x3e91d04f	0.2847924
33	0x3e2790b9	0.16363801
34	0x3e2c5e35	0.16832812
35	0x3e7421f3	0.23841076
36	0x3e7d0a29	0.24710907
37	0x3e80693d	0.2508029
38	0x3e522b04	0.20524222
39	0x3e9a174b	0.30095896
40	0x3e97a0ed	0.29614964
41	0x3e67103e	0.2256479
42	0x3e55b949	0.20871462
43	0x3e3dbdb2	0.18529394
44	0x3e500372	0.20313814
45	0x3e60cac0	0.21952343
46	0x3e01966c	0.12655038
47	0x3e8a3677	0.26994678

accuracy f8 []
0	0x4053351eb851eb85	76.83
