Model/models/model_LSTM.npz (npz, 4462 bytes, 13 tensors)

WF f8 [1, 48]
0.4823044805123901 -0.02387966254017308 0.040432883439074856 -0.05441795738957505 -0.02766810438294164 0.09338759288163659 0.31007465730883904 0.05656689731259095
-0.1696973598284231 0.34086530185441943 0.2782257958685038 -0.07604821954822873 0.3264536947652356 -0.06317204092647032 -0.2697794378810324 -0.615662707919037
0.6175565864015133 -0.4681174875541556 -0.371248101562 0.22446034746190704 -0.05707616870619694 0.3325448093591009 0.09044548533900368 0.026854398952103228
-0.2367240408491199 0.2957969954047936 0.34232845217231367 0.2662118747238384 0.05020245582885282 -0.3198328042867622 0.39852143237137033 0.16973513619908667
0.3766713176312415 -0.28026796256788644 0.166701842628167 0.17421908401913128 0.21430329034962653 0.031094489728904825 -0.4304613381400485 -0.44954231016492874
0.09613609430223596 0.22176475048830321 0.4790757452096448 0.10291765753527755 -0.173634010978488 -0.13961924557567415 0.3051459688906211 -0.1655167264203924
00000000: 83f5 a09c 13de de3f 2b26 9906 e973 98bf
00000010: 878c 1b70 9eb3 a43f 3750 9ba6 abdc abbf
00000020: fd41 de0d 0755 9cbf e25e 47d1 3fe8 b73f
00000030: 876e 1d60 43d8 d33f 37cf fc1b 56f6 ac3f
00000040: 9a1e 57a1 a4b8 c5bf dc93 f3b2 bcd0 d53f
00000050: b629 8a91 73ce d13f 89f0 e067 e577 b3bf
00000060: 1334 ab09 9ee4 d43f d7fe ccf9 0a2c b0bf
00000070: 5e44 b5f9 1044 d1bf 4b21 7c47 82b3 e3bf
00000080: c6c3 c007 06c3 e33f 30c5 ee0c a3f5 ddbf
00000090: cd4b ba65 87c2 d7bf 0581 ccdd 1dbb cc3f
000000a0: 83bc f26b 1639 adbf 9eb8 2906 6a48 d53f
000000b0: 0a14 9a71 6f27 b73f af17 0335 b87f 9b3f
000000c0: 34dd cf2e f94c cebf 9331 6185 56ee d23f
000000d0: 3a81 a498 b5e8 d53f 1fba ef87 9d09 d13f
000000e0: 2b78 ede3 22b4 a93f 0c60 a602 2478 d4bf
000000f0: 2f91 b209 6081 d93f f984 7a85 e1b9 c53f
00000100: 7450 a403 621b d83f b61e 5609 e9ef d1bf
00000110: 60ad 2269 7c56 c53f 66c2 199a cf4c c63f
00000120: 0a09 bd4b 4a6e cb3f dfc4 e2e1 3bd7 9f3f
00000130: fe3f 60b6 ad8c dbbf f4e7 141c 4dc5 dcbf
00000140: 4c47 fe04 609c b83f cb5d 608f c962 cc3f
00000150: 3cdd 7e50 2da9 de3f 8581 4bc5 cf58 ba3f
00000160: d91d 50a7 a339 c6bf 1fe2 d11e 0bdf c1bf
00000170: 890d 39f5 8287 d33f fc51 75ef a62f c5bf

UF f8 [1, 1]
0.4814371822074364
00000000: 8132 2ae6 ddcf de3f

BF f8 [1, 1]
0.2189832985596276
00000000: e786 d70c a507 cc3f

WI f8 [1, 48]
-0.049945888499235536 0.45974811655273257 -0.25287194804704455 0.4316360539981691 0.248580178112536 0.12567758974809504 0.11250413948507353 0.4239956812239975
0.00454348202994473 0.2185374714950335 -0.06636323204349572 -0.018863537566082746 -0.20427466659484897 0.2084333873201744 -0.12088360429862803 0.28374150942481113
-0.06946677669408505 0.010441858073597753 0.11733554723130057 0.7256756291831448 -0.15850103720239847 0.20494401946125984 -0.1315192367939981 0.09341150385083112
0.3666576582763516 -0.1917282748775534 0.17249438849316567 -0.12387951039407166 0.0513606193871427 -0.015726637519316498 0.4593980577007389 0.07176099864924154
0.055052182080652844 0.5727006870963396 0.6106622458837515 0.17505080914131854 -0.09102867306031032 0.2369165209530089 0.11732414804960922 -0.03483531321977738
0.5882082287613953 -0.07293708112544224 0.04938563188108607 0.7000928644894323 0.5724053981058573 0.294122280797782 0.43964156032561513 0.057613560824889984
00000000: b006 59eb 8192 a9bf 1776 3f5d 836c dd3f
00000010: 0506 bcd2 0d2f d0bf 8795 ecd3 ec9f db3f
00000020: 65ae b6ab 79d1 cf3f 3772 e708 3416 c03f
00000030: 77c5 c03f 12cd bc3f db25 20c8 be22 db3f
00000040: a13f a8ab 2f9c 723f 1ac7 822e 09f9 cb3f
00000050: d19e 4847 2efd b0bf e796 bb93 f650 93bf
00000060: 118d 361a ac25 cabf 9ea2 f7fa f1ad ca3f
00000070: 7bd0 1557 3af2 bebf c6d2 df25 d228 d23f
00000080: ee43 0f1e 93c8 b1bf 390f 7c77 8a62 853f
00000090: 6846 04d2 b309 be3f 0a11 db18 bc38 e73f
000000a0: f74b 9511 c349 c4bf 2c67 8c0a 9b3b ca3f
000000b0: ef9c 6952 9fd5 c0bf 0b08 1cfa d0e9 b73f
000000c0: effd c7ae 5177 d73f cca6 2857 8d8a c8bf
000000d0: 542c a9ce 4b14 c63f ca7a c94d 91b6 bfbf
000000e0: b8e1 2369 f04b aa3f 293a 49c7 a41a 90bf
000000f0: 05eb 6a1c c766 dd3f aea8 53c6 ed5e b23f
00000100: 1b3d 38b3 cc2f ac3f 5c37 2f64 9053 e23f
00000110: bb1f df8c 8b8a e33f 103d 339e 1068 c63f
00000120: c4d4 cab5 a74d b7bf ea08 b0d2 4753 ce3f
00000130: 5075 e792 f408 be3f 7dba 0c26 efd5 a1bf
00000140: bf95 3810 9ad2 e23f 1577 192a 01ac b2bf
00000150: 77a3 a4d3 1249 a93f 6da4 a426 2967 e63f
00000160: 7f64 1d20 2551 e23f 2e4a 4342 e6d2 d23f
00000170: 3fe6 e35a 1623 dc3f be17 194f 867f ad3f

UI f8 [1, 1]
-0.36813519771810554
00000000: 202b adee 868f d7bf

BI f8 [1, 1]
0.3526647329014676
00000000: 94eb 9019 0f92 d63f

WG f8 [1, 48]
-0.5979471829011025 -0.2746081532233194 0.43085794062042054 0.5742223017864404 -1.232167152600062 1.2912762226711734 0.3219606812435489 -0.15999799786772426
-0.16677181140088754 -0.231778672446103 0.16588970832467603 -0.045777643246037024 0.9368085791534062 0.2916983928150367 -0.3110488956722706 -0.39755772351830926
0.16048198216502663 0.26613985323528155 -0.8237501031303899 0.630918803499879 -0.08700658787789971 -1.0559696607561175 0.7635965606306561 0.36063509543286304
-1.3857466386063373 0.26577618424103494 0.8368998999055719 -0.4754983368503506 -0.33522988733860254 -0.8657950178927665 -0.43530328181607847 -0.010027681323804653
-0.22896529614922048 1.1145076923945954 0.2182116285596226 1.2977094090560017 0.29374853727167943 -0.7298454337231143 -0.32360523152103005 0.06925675106232898
-0.5513239701415984 -0.5227362222966824 0.40802446566432293 -1.0825989111502872 1.3269972477294145 -1.147627315156788 -0.6110682601291103 -0.42802097081030716
00000000: 4675 6921 6222 e3bf 85c8 5313 2e93 d1bf
00000010: 85f1 0b2f 2d93 db3f b3cf d972 0760 e23f
00000020: 9cf6 79e7 f4b6 f3bf 069a a741 11a9 f43f
00000030: b77d 22f9 009b d43f a338 227c d07a c4bf
00000040: 5e45 ee59 c758 c5bf ce7c 086d ecaa cdbf
00000050: daac ffbb df3b c53f fb65 42d1 2a70 a7bf
00000060: 786f 42fc 55fa ed3f 0fed 5bbc 2fab d23f
00000070: e9a2 97a0 39e8 d3bf 6122 32f3 9571 d9bf
00000080: 647e 7f70 ac8a c43f 92b2 7373 6f08 d13f
00000090: 5fb1 202d 295c eabf 6dd4 6ea1 7c30 e43f
000000a0: 77dd 7851 1046 b6bf 7840 6871 40e5 f0bf
000000b0: 5ee5 e70d 626f e83f 9522 2b39 a514 d73f
000000c0: cab2 d5aa 042c f6bf 15bd d71c 7a02 d13f
000000d0: e6d7 834c e2c7 ea3f 06c7 8493 906e debf
000000e0: 3fb5 b00e 6874 d5bf 0e74 dcc0 97b4 ebbf
000000f0: 3475 cf4b 02dc dbbf 5c3e b99a 6489 84bf
00000100: 259f 701d bc4e cdbf 7b9a 9f04 06d5 f13f
00000110: 0b9f 22d0 5bee cb3f 54b6 f9f0 6ac3 f43f
00000120: cf19 35aa c6cc d23f 0739 9fcf e45a e7bf
00000130: 18a1 8cb7 f2b5 d4bf c004 d778 cfba b13f
00000140: 1a4a a82a 72a4 e1bf df5c 6650 41ba e0bf
00000150: cac0 ffa5 121d da3f 0a36 613c 5352 f1bf
00000160: d913 4e77 613b f53f d983 a975 ae5c f2bf
00000170: cd19 1c06 df8d e3bf e579 e811 b264 dbbf

UG f8 [1, 1]
-0.42127055671504904
00000000: 61f7 f6c7 18f6 dabf

BG f8 [1, 1]
-0.08365688817857134
00000000: 52e5 cfae 896a b5bf

WO f8 [1, 48]
0.4181741821760932 0.1606874396280122 0.09527016292229218 0.5793651761113029 -0.2544885447773281 -0.2105880883861045 0.19712838105579633 -0.555815431477392
0.4570356047008242 0.3779117110879033 -0.0394924412870457 0.5871340335385075 0.65459670290029 0.8315031389087257 0.07293241276545567 -0.18609887859858013
0.75683364610845 0.02493557488165238 0.1258676686185517 0.7509728658719731 -0.19657062008856113 0.24612958871922933 -0.1784279395083494 -0.04519812804276368
-0.4129122206800719 -0.2823667939884532 -0.3109486699395139 0.036483719468527465 0.16905960319300123 -0.05546470547518628 0.7132735634393674 0.28509017664252867
0.39818871179577225 0.12445050983116503 -0.06108543195812506 0.5791063895734029 -0.030894589597192715 -0.6981299383768287 -0.5030040267894285 -0.23934689990199912
0.2483051666125644 0.5274707477083658 -0.30406303132016793 -0.10436774830320089 0.47045199097177204 -0.4862693075353705 -0.27782239706395 -0.16649247388158234
00000000: 5d95 1ea5 5dc3 da3f d746 0af1 6791 c43f
00000010: 982c 091a a063 b83f c3db 7ad6 288a e23f
00000020: ca9d 4152 8a49 d0bf 2ad2 45ec 8cf4 cabf
00000030: ccc0 dfb6 803b c93f 44d7 9971 3dc9 e1bf
00000040: 450c d343 1240 dd3f ef77 f999 b42f d83f
00000050: 47bc 886f 5a38 a4bf 9d53 0d50 cdc9 e23f
00000060: 6bd6 e0c8 74f2 e43f 5e4c 8478 ac9b ea3f
00000070: 9660 a5d7 b2ab b23f 459b b38a 16d2 c7bf
00000080: 1b8b d131 fb37 e83f b19f 7e1a b688 993f
00000090: b493 2b88 6e1c c03f 0750 633f f807 e83f
000000a0: 7a41 51e0 3929 c9bf 3542 10a3 2c81 cf3f
000000b0: 7ec5 700a bad6 c6bf 4f74 9183 3524 a7bf
000000c0: 1f23 fc60 276d dabf 9e08 6a2c 4c12 d2bf
000000d0: 89fe 0740 95e6 d3bf c053 e87b fead a23f
000000e0: 62f3 64bd bea3 c53f e846 32b0 de65 acbf
000000f0: d259 8214 23d3 e63f 24cb 45de ea3e d23f
00000100: 4726 b381 ec7b d93f 7104 b215 fddb bf3f
00000110: 3a5b 0bf9 9646 afbf b5ea 831f 0a88 e23f
00000120: 61ec c5cf d4a2 9fbf b2fb b598 1457 e6bf
00000130: 1224 9ae6 9b18 e0bf 7531 bd51 eba2 cebf
00000140: 90af 03b5 76c8 cf3f 9221 6055 0ae1 e03f
00000150: ef55 dcc9 c475 d3bf 142b b841 d8b7 babf
00000160: 52f5 e3aa e21b de3f 4f6e 3a4d 091f dfbf
00000170: 7d1a 5f97 d7c7 d1bf f2fe 2c19 a04f c5bf

UO f8 [1, 1]
-0.2227568784153372
00000000: bc5f e021 4c83 ccbf

BO f8 [1, 1]
0.23154373265605482
00000000: b2fe ac9b 39a3 cd3f

accuracy f8 []
73.31
00000000: a470 3d0a d753 5240
