Model/models/model_LSTM.npz (npz, 5629 bytes, 17 tensors)

WF f8 [1, 48]
00000000: ba12 28d7 0adf c6bf 1787 fbd8 1ad8 c93f
00000010: d19b 38f2 4868 c6bf 6f5f 2112 e5af 863f
00000020: e9b5 fe59 c606 a6bf d2ae 7ce1 b6af a4bf
00000030: 0c97 5e2f 6893 993f 92de b7c1 cfa3 d03f
00000040: 47a9 ed3b e257 ccbf cf9e 7f54 73ab bb3f
00000050: 35f7 7c81 a496 c2bf f088 1b8d 1320 c83f
00000060: 4492 7724 2c39 c03f c269 9f9a 5a1d a8bf
00000070: b7d5 cd10 f4dd c23f 6ffb 1482 2053 a0bf
00000080: 4ee6 e17e 9edf b53f c640 c5a9 c617 b73f
00000090: 7943 9f16 6015 c7bf 0714 05a6 66e1 b7bf
000000a0: 1638 1b3b 3d97 dcbf 4ad7 3931 940b b4bf
000000b0: 9302 aca4 aa43 733f c2ed 27f1 0e92 9ebf
000000c0: 26f8 d74a c3af 6fbf 7b4a 7bb4 721f c1bf
000000d0: 6f86 eb87 143c c3bf 32d6 afc8 e16f c93f
000000e0: 5470 5cd6 1f1e a43f 16e5 7f68 7be5 c7bf
000000f0: efe9 74e7 a3e2 c1bf d5c5 3024 f9d0 b5bf
00000100: c9c6 ad9c 8cef d5bf fcd8 129c 542e a83f
00000110: 57db faac 4624 d03f d1c1 f328 d524 c53f
00000120: fbd9 cbbb 2adb d1bf a11d a565 30a1 ad3f
00000130: ddd3 3de2 1c2b a73f cc7f 358e 4e65 a0bf
00000140: a898 ff65 bf36 dbbf 7821 0b14 7b79 c6bf
00000150: d8ae f464 19dd b6bf cf54 f40b 37be cfbf
00000160: 4191 a983 e665 c23f d54d 3608 6712 b0bf
00000170: 8291 9122 f388 b23f 42c8 4fc4 585a 913f
-0.17868171220483992 0.2019074973568926 -0.17505752398684973 0.011077680221361878 -0.04302043770381287 -0.040403094315789936 0.02497637547607838 0.25999826352879396
-0.2214319985026327 0.10808487713768077 -0.1452222473398536 0.1884788931848287 0.1267447641431706 -0.047098952650873396 0.14739847965726735 -0.03188420856394358
0.08544340703692763 0.09020654339588238 -0.18033982376666893 -0.09328309586733506 -0.44673090717412955 -0.07830167962842186 0.004703203749841694 -0.02985404345416299
-0.003867989950548728 -0.13377221882418042 -0.15027100216598252 0.19872686671412648 0.03929233066284668 -0.18669073679465303 -0.13972901155086911 -0.08521992810781083
-0.3427459268633411 0.047228473712879165 0.25221411602563165 0.16518654346101738 -0.2790018876980011 0.05787039986403931 0.04525079976784927 -0.03202290998410681
-0.4252165313795424 -0.17558229902921219 -0.08931120600453413 -0.24799240192138547 0.14373475483729162 -0.06278079939357124 0.07240218728981598 0.016946207982933233

UF f8 [1, 1]
00000000: ee8d 5c43 3f36 b13f
0.06723399538582672

BF f8 [1, 1]
00000000: 02b5 d1af ebd6 d13f
0.27874271554794927

WI f8 [1, 48]
00000000: 6c30 99b4 42a4 c7bf 5ab0 acea 79e3 c13f
00000010: cc8c 38f7 3fa0 d03f 8ba1 ab07 1fb1 c8bf
00000020: a642 eb9a 81e9 ce3f 3259 964d c142 bc3f
00000030: b50b 4788 ea58 c4bf 6ea4 fbdf efdd c0bf
00000040: 4663 d3c8 6649 cd3f ca64 5c64 64aa cd3f
00000050: 53a4 1bd2 6f2b db3f c9db 5b09 76f0 bd3f
00000060: e9c8 45b2 b903 cabf bb6c ab13 7a1b 8b3f
00000070: 3668 71db f41e b6bf 2134 a172 5d90 91bf
00000080: ad25 aadd 2c0d c23f 7685 9487 0632 cebf
00000090: f5eb 5204 e736 bc3f 30d5 4251 9e12 c9bf
000000a0: 4f3a c784 3663 c2bf e0f0 d486 8f59 a0bf
000000b0: 50b1 e548 7b42 a2bf 96a6 6752 5ade be3f
000000c0: 6521 7ee2 dd0c b63f 20c4 27f9 c791 be3f
000000d0: 5201 c521 46ac c93f ed7a 744c fecb cdbf
000000e0: 0f97 5329 0fc8 e33f 899f 5bce 0cda d0bf
000000f0: bd0d d3bd d727 a8bf 77e5 cde1 db3c cebf
00000100: da53 e517 7378 a3bf a363 bbf0 8c59 ca3f
00000110: 71dc 44e4 70c0 c6bf 736e 0421 95ec bbbf
00000120: 4b6d b1a5 fc7f cf3f 8cf2 5b21 e5fe c2bf
00000130: 49db abae ea97 c1bf cf85 2a9f 9870 83bf
00000140: da36 eea2 0852 c53f 5b47 551b 5827 cd3f
00000150: 108c 6a9f be68 b23f 1159 f5e7 a989 bcbf
00000160: fe8c 988c 9f6b cd3f 68b7 ef66 dcbf d1bf
00000170: 8ee9 b0aa 7bd9 c9bf a1f2 5a91 3e99 b8bf
-0.1847003347232915 0.1397545238372711 0.259780875612887 -0.1929053103879251 0.24150104584125137 0.1103936018392673 -0.1589635053079214 -0.1317729800860294
0.22880253606742879 0.23176245594439698 0.42452617185933156 0.11695039490210414 -0.20323868946758886 0.013236001706380276 -0.08640985829825429 -0.017152271386567833
0.14102707694500563 -0.23590165729641982 0.11021274428905754 -0.19588068931413138 -0.14365273936569387 -0.031933293541870134 -0.03566346421107147 0.12058033477628735
0.0861338308296858 0.11941194374937014 0.20056988381294133 -0.23278788312105494 0.618171292034022 -0.2633087172712228 -0.047178975984504025 -0.23623226667022454
-0.03802833239266308 0.20585786585323004 -0.1777478327364608 -0.10907871299826315 0.2460933503196919 -0.14840377930513104 -0.13744863060829918 -0.009492103917469045
0.16656597095100417 0.22776318869233134 0.0719107760619837 -0.11147558129355085 0.229846900606482 -0.27733526279813825 -0.20194955667996023 -0.09608832405769842

UI f8 [1, 1]
00000000: c8a2 5769 14ac cbbf
-0.2161889566771349

BI f8 [1, 1]
00000000: 0822 81a6 2959 d33f
0.30231705913732343

WG f8 [1, 48]
00000000: b8ee e126 8c5a c83f c543 ee7f 4218 d8bf
00000010: 8007 4d40 5277 9b3f 470e fd87 e2c0 873f
00000020: eb8c 1895 4d63 d0bf 177f 9165 d5b7 b23f
00000030: a1ed 2fd5 d2f5 d8bf 85c5 660c 9c37 cdbf
00000040: e255 d303 2294 a1bf 8a85 fac4 e59b b6bf
00000050: a859 de86 3283 b03f ca6b 5536 a8e9 bcbf
00000060: a7b0 fe8a 85cd 943f fc35 03e5 4fbf b4bf
00000070: 232a 0ce1 d2eb ccbf 97f9 f63d f626 c4bf
00000080: 45ae dfd8 9584 d83f dde3 053d 4781 ccbf
00000090: d99d cb0e 563b a53f bf76 5422 0efd d03f
000000a0: a785 6396 ec5f c5bf 884c e6c9 91da b2bf
000000b0: 9d37 ad08 c4c4 a13f b54e 113b ee2b d23f
000000c0: ce64 b6a9 9c57 c2bf 5fa0 a916 3485 31bf
000000d0: c805 1729 4be8 ca3f e041 56cf 961a cebf
000000e0: dcb5 d97a cc88 ccbf 6337 00c8 8ea7 dcbf
000000f0: b96e f015 9133 c5bf d1da 0823 26fa d6bf
00000100: 8977 a157 7b41 d3bf 53a6 7c70 6833 c83f
00000110: ddb0 7a6b f608 9dbf 2986 66ac 6760 d13f
00000120: 8308 213f 3cc3 bebf 6b0e 803c 02e5 c1bf
00000130: 5d2c d414 4bae c6bf d3db 73bc f395 bc3f
00000140: acd2 f879 3bc0 c03f d797 d925 b596 e13f
00000150: 34db 6222 7a22 c3bf f138 47ef 8a37 cabf
00000160: afe6 72c2 ddd1 e33f 95f9 6d4f dc39 c5bf
00000170: bf6f 1da6 750c d0bf 4a96 e1d1 7790 963f
0.19026328943788484 -0.3764806985209897 0.026822362112632003 0.011598367476501127 -0.2560609775557185 0.07311757783599791 -0.39000387972893164 -0.22825956922092075
-0.0343332891149364 -0.08831630763099532 0.06450191300095887 -0.11294032408242952 0.020315252884458925 -0.08104419079901243 -0.22594676960609758 -0.15743902230856285
0.38309236697270804 -0.22269525985373564 0.0414683239994777 0.26544526436360266 -0.1669898733444317 -0.07364760569753248 0.034704328593405644 0.2839313103515722
-0.1432987049745748 -0.0002673389596226146 0.21021403795570692 -0.23518643497347025 -0.2229247665267583 -0.44772691279728444 -0.16563619204759109 -0.35901788159700937
-0.30087169225395677 0.18906884663128895 -0.02835450201989508 0.27150909267411066 -0.12016655484424814 -0.13980129198181443 -0.17719400898963303 0.11166308737652679
0.13086646514570555 0.5496469249017036 -0.14948965720187746 -0.20482002910143352 0.6193684385136374 -0.1658282649841111 -0.25076047155539166 0.02203547686112576

UG f8 [1, 1]
00000000: b93a 6cee 713b d13f
0.26925323756669745

BG f8 [1, 1]
00000000: 4e0b f6bc 53cb da3f
0.4186601014445629

WO f8 [1, 48]
00000000: 82f8 b770 e8af 8f3f f8b0 21a3 0458 c23f
00000010: 9d4a 2b09 da93 e23f c526 17fa fd1b a7bf
00000020: f613 549c 861d c2bf c49a 4b76 cfbd df3f
00000030: 84b1 9667 21b5 c5bf 71aa 5e57 baf0 a13f
00000040: 5b11 16a3 216e aabf e9e7 34ea 0029 c43f
00000050: 1db0 cbf0 bb8d d03f f6e3 b104 7568 c83f
00000060: f60b ed13 391d 703f daf7 bb09 83b3 643f
00000070: 85c6 2df9 54c4 a2bf c429 7d93 10da d7bf
00000080: eaf2 b1bc 4781 e43f d54a ce5f 6684 c53f
00000090: bca7 cc6b 7805 cdbf af59 2612 b027 cbbf
000000a0: bb25 f39d 5461 d7bf 14b1 5759 a79e ce3f
000000b0: 5903 4974 8b35 c5bf 0321 bf49 3552 e2bf
000000c0: ce1d 6f0c 28df c4bf 8871 db33 7314 c53f
000000d0: 1aac bd5f ade1 bcbf 2836 4426 0ea2 e0bf
000000e0: 3f84 e6b1 ac0d c23f df7e 3661 a8da bcbf
000000f0: 825a 628a fa25 c0bf 31a7 7b6c b528 cabf
00000100: 9a1e d017 0420 d0bf f82c 8506 b022 a43f
00000110: 3d36 b3a0 7f56 c6bf 2494 ca38 3519 bebf
00000120: 1c9e e72c ba23 113f bbab 42d3 5607 d83f
00000130: 120b 2fc6 9d91 db3f 8258 e348 d981 96bf
00000140: 5721 5edd 6368 c93f 4d77 5417 a2f8 cb3f
00000150: a5a4 f25a 575b cebf be8e 3af6 1d22 e2bf
00000160: 6b33 22a7 31f8 d13f da97 5a17 9e6d 703f
00000170: 869b dc10 ae9e c6bf 0f0a 70e6 2e35 9bbf
0.015472236575984736 0.14331109967623212 0.5805483035167814 -0.04513543775426635 -0.14152605660652257 0.4959601073482356 -0.1695901637844025 0.035039733090646126
-0.05162148586080902 0.1575013297641015 0.2586507655639723 0.19068777779810347 0.003934119186683729 0.002527004178658904 -0.036654143731436974 -0.37268461611952497
0.640781277222769 0.1681030242731 -0.2267294432033945 -0.21214867483349795 -0.3653155844191038 0.23921672689846984 -0.1656965558813919 -0.5725351753581268
-0.16306019408351208 0.16468658477868936 -0.11281856143402572 -0.5197821376220348 0.14104231535478282 -0.11271145223008315 -0.1261590171531744 -0.20436733052275138
-0.2519541008518701 0.039327145381855944 -0.1745147261303134 -0.11757214199549587 6.538223099249906e-05 0.375447946843163 0.43076271394618104 -0.02197970874188871
0.19849823292703192 0.21852518214375963 -0.23716251316844708 -0.5666646775393571 0.2807735569156679 0.004010789436199114 -0.17671752761199516 -0.026570065321729838

UO f8 [1, 1]
00000000: c86d b4fc b860 a4bf
-0.03980043492102997

BO f8 [1, 1]
00000000: 306a 8810 7502 e83f
0.7502999613673804

Long_mem f8 [1, 1]
00000000: c992 7735 70f5 f93f
1.622421463828845

short_mem f8 [1, 1]
00000000: cc2d ee8e 1634 ea3f
0.8188584128960712

mean f4 [1, 48]
00000000: ebc1 003f 437c 053f c2a2 ef3e a4b6 093f
00000010: d609 003f fd5c 153f 1a9a dc3e bbb5 ca3e
00000020: c638 b93e d496 063f a385 e93e 59e8 ce3e
00000030: 486a 0a3f 61e7 d73e 92f4 e03e a6bb be3e
00000040: c534 143f 943a 133d 7871 c73e dd8f 053f
00000050: 3e3d 9a3e 07a9 f93e 9a04 883e a203 173f
00000060: e4da 713e 5ca0 d93e c0f7 e73e 6e34 ba3e
00000070: 68c2 fc3e 66f0 de3e ddc4 a23e 9f0e e73e
00000080: 2332 023f 77c6 0c3f 7837 0a3f e69c e73e
00000090: 6cdf e33e 213f 5f3e fb1c da3e 30a1 db3e
000000a0: ab0b 013f 86d1 f83e 4d99 163f b6fa 1b3f
000000b0: 0973 f33e a160 8a3e e7a0 c83e 21e5 013f
0.50295895 0.52142733 0.46803862 0.5379431 0.5001501 0.58345014 0.4308632 0.39591774
0.36176127 0.52573895 0.4560977 0.40411642 0.5406842 0.42168716 0.43936592 0.3725254
0.5789302 0.035944536 0.38953757 0.5217264 0.3012485 0.4876177 0.2656601 0.5898992
0.23618656 0.42505157 0.45306206 0.36368126 0.4936707 0.43542784 0.3179082 0.45128343
0.5085775 0.54990333 0.5399089 0.45236892 0.44506395 0.21801426 0.42600235 0.42896414
0.5040843 0.48597354 0.5882767 0.6092943 0.47548702 0.27026847 0.3918526 0.5074025

std f4 [1, 48]
00000000: 0332 513e 0248 4c3e 430a 473e cb74 863e
00000010: 3ab4 5c3e 3989 473e 98ba 553e 5f7d 413e
00000020: cf17 4b3e b36c 543e b47e 543e 437b 263e
00000030: 7dbf 5d3e bbd2 8b3e c06e 823e 0baf 533e
00000040: b4f0 813e 13eb bb3c 3d9c 343e 5af7 bb3e
00000050: 2458 853e 472e 7f3e 22fd 973d 3b60 473e
00000060: 69db 1d3e d67c 8a3e 3346 9f3e 9520 623e
00000070: c901 5c3e 7559 713e 70d4 533e f9c3 3c3e
00000080: ff0b 913e 33b5 273e 8b86 2e3e c8df 813e
00000090: 7e6d 813e 12d8 6d3e 4b26 443e 7aab 973e
000000a0: 9995 973e 8acf 673e f66f 623e 3078 423e
000000b0: e0e6 4d3e 825a 443e faee d73d a5b7 8c3e
0.20429234 0.19949344 0.19437508 0.2626098 0.21553126 0.1948594 0.20871961 0.18895482
0.19833301 0.2074459 0.20751458 0.16257958 0.21655078 0.27309212 0.2547512 0.20672242
0.25378954 0.02293924 0.17637725 0.36712152 0.26043808 0.24919997 0.07421328 0.19470303
0.1541573 0.27048367 0.31108245 0.22082742 0.21485056 0.23569281 0.20686507 0.18434133
0.28329465 0.16377716 0.17043512 0.25366044 0.25278848 0.23226956 0.19155233 0.29623014
0.2960632 0.22637764 0.22113022 0.1899116 0.20107603 0.19175151 0.10543628 0.2748386

accuracy f8 []
00000000: 7b14 ae47 e1fa 5340
79.92
