Model/models/model_LSTM.npz (npz, 4459 bytes, 13 tensors)

WF f8 [1, 48]
0.18546155784322294 0.3526420213447588 -0.23694882814581425 -0.25219728200022734 0.6409747123021149 -0.43271288368980143 -0.24983102501080895 -0.23719278523177617
0.13074893196252274 -0.09944155260208842 -0.0373918529019069 0.2838066125436671 0.2517466366146125 0.14676776565805263 -0.557368401804278 -0.5355380571366976
-0.17583530327470887 -0.5529697914194829 0.28714632075280333 1.0134511830841226 -0.2235528056770046 -0.13514447549397196 -0.0020439424650543253 0.017819002359612122
0.20230408433186856 0.24828190788580884 -0.34383334193910686 0.09858612819966066 0.361041615099441 0.2437909199772373 0.5899181899279048 -0.7942359007030584
-0.23725682331398573 -0.24435171641021775 -0.43125490248026205 -0.2310760471367105 -0.006733412376204143 0.6735118005162849 0.6362040331171904 0.11181144938695654
-0.3649162190974854 0.42679858834434187 0.6959312256964497 -0.12119347374609003 0.19735380254380838 0.46092193550396093 0.2290788996385814 -0.8061489701894647
00000000: 9409 cd4e 34bd c73f a9bf 37d7 af91 d63f
00000010: 261c dbd5 5654 cebf 2f30 9511 0024 d0bf
00000020: a7d1 5c66 dd82 e43f ea5a 0061 91b1 dbbf
00000030: 624a f988 76fa cfbf ea74 b54b 555c cebf
00000040: 1e0b 6289 61bc c03f 5018 4a68 0075 b9bf
00000050: 0a79 b362 0625 a3bf b8de d035 e329 d23f
00000060: 02d1 c8ec 9d1c d03f b1dd cd40 49c9 c23f
00000070: 5757 3242 f6d5 e1bf bd4b 25b5 2023 e1bf
00000080: e807 866e c581 c6bf e852 3ab4 edb1 e1bf
00000090: 7833 33f6 9a60 d23f 6305 7796 1837 f03f
000000a0: 57e8 a7da 609d ccbf caa7 3d07 6a4c c1bf
000000b0: c9a2 5a41 75be 60bf c90b 8701 253f 923f
000000c0: a5bb 06a9 19e5 c93f a46d 4799 b3c7 cf3f
000000d0: 48c8 b98f 5d01 d6bf 3bf1 74c4 f03c b93f
000000e0: 3237 564a 4e1b d73f 2397 2e76 8a34 cf3f
000000f0: abc9 a11c 9ce0 e23f 0885 5a68 616a e9bf
00000100: 2e76 717c 6e5e cebf 6e07 5ac3 ea46 cfbf
00000110: ff1c 9929 ae99 dbbf 05aa ab60 e693 cdbf
00000120: ddf4 239f 7e94 7bbf 2900 969e 688d e53f
00000130: d34a 7a8f c85b e43f 4972 6fd6 ac9f bc3f
00000140: 566f b38e c95a d7bf 1fbf ba06 ab50 db3f
00000150: cf34 d48f 1145 e63f 3164 3a16 8906 bfbf
00000160: ef5c d5af e342 c93f f9e7 bfb7 be7f dd3f
00000170: 3460 1317 7552 cd3f dd5e d5ec f8cb e9bf

UF f8 [1, 1]
0.7888751576539537
00000000: b604 581d 773e e93f

BF f8 [1, 1]
0.051130639111387516
00000000: 842d 9d8d cb2d aa3f

WI f8 [1, 48]
0.3431759600539142 0.561796223411114 -0.20168952756725492 0.6151197070024366 -0.0864501119659735 0.0514046855342148 -0.008950585830601267 0.0015528038344702559
0.5058722850529158 0.32437384749891685 0.4600804453993817 0.00564289138462517 0.5167171430928627 0.3906673965873181 -0.12024006023636162 -0.32766249941107994
0.02388185730762526 -0.33468846937165303 0.05316891958999905 0.6272534673195274 0.3574387642676603 0.24896396566753995 0.25940545400273096 -0.06624445358315705
-0.19861297183934198 0.56035231015228 0.10768685270767443 -0.2000861938531084 0.07983059026600556 0.5650082686096175 0.08565327185663024 0.3483373467149508
0.041923157993485664 -0.039498221890310166 0.3219939078108233 0.15857380162850024 0.37321173918085926 0.634917950278051 0.08702466183651103 0.035386122698376196
0.1070221445883909 0.1750178413141058 0.07231898549301141 0.5827458559111891 -0.03815745234091884 -0.11025350427705909 -0.203520112713107 0.25624091630689994
00000000: 211e 4d4d 98f6 d53f 3a25 d212 3cfa e13f
00000010: 256c 6c62 f6d0 c9bf 0c6b 1686 0faf e33f
00000020: ff1f a133 9821 b6bf 6a13 7606 b751 aa3f
00000030: c139 614b af54 82bf e3ee e96b ee70 593f
00000040: 7a29 0813 1b30 e03f e0df ab86 8ac2 d43f
00000050: cd3e a140 f571 dd3f 19c2 3a1f 001d 773f
00000060: 87b9 db63 f288 e03f fe2e fdd2 b100 d93f
00000070: c35d 6276 0dc8 bebf 4428 c621 6cf8 d4bf
00000080: 1f7c 6a50 7c74 983f c92b 932f 896b d5bf
00000090: 73fb 9ae5 f438 ab3f 4614 0edd 7512 e43f
000000a0: 568b b6d6 46e0 d63f af57 361d 0dde cf3f
000000b0: f620 5655 199a d03f 4359 ae81 65f5 b0bf
000000c0: 7b40 4e5d 266c c9bf 6af2 caf7 67ee e13f
000000d0: 81b0 9696 5d91 bb3f bf77 7da5 6c9c c9bf
000000e0: d6b1 690e c76f b43f 85bb 7438 8c14 e23f
000000f0: 7c6c 6b71 5fed b53f 9f6e 07ba 284b d63f
00000100: 0fdb 0dc1 f376 a53f c1be 8966 1c39 a4bf
00000110: 27c2 e355 8c9b d43f 2597 ff75 254c c43f
00000120: f2f6 907d b3e2 d73f 7bcd 0273 3f51 e43f
00000130: a884 888c 3f47 b63f b68b 713f 211e a23f
00000140: ca75 f4a2 cd65 bb3f 9c8e 5410 fc66 c63f
00000150: a887 923d 7f83 b23f 2894 20a3 daa5 e23f
00000160: 324c cea3 5f89 a3bf 6bad 23db 9239 bcbf
00000170: f02b 1772 f20c cabf 74da db4c 4066 d03f

UI f8 [1, 1]
0.022741201716596864
00000000: bbfd 9336 7849 973f

BI f8 [1, 1]
0.3088632208720539
00000000: e54a 253e 6ac4 d33f

WG f8 [1, 48]
-0.49901310340759925 -0.18669454115953973 -0.001939464660940776 0.43464949902571537 -0.7070664476533365 1.296732647767457 0.07677165830150959 0.2153941413092741
-0.0544515893679443 -0.20531418696983203 -0.7714778543036862 0.5919161911475112 0.9406861561334765 -0.3626411075844318 -0.885742054902728 -1.1517131436945354
-0.059048736499441486 0.044465268334538594 -0.6884682779444798 0.5919943095475925 -0.3819137762863462 -1.171606663082906 0.4472521018130646 0.27158629166413817
-1.6048209342593842 -0.4936489322106345 0.4020415205023426 0.18036001571010332 0.6220947950075985 -1.327795100934761 -0.821893657577836 -0.1572648917473198
-0.5657063087991125 1.1900949722036482 -0.3856964558065802 1.0466971977907584 0.43143316799064 0.9273580501310089 0.5863880777561721 0.28388614439275145
-1.2201694319104646 0.39980589207522144 0.6188534229091409 0.3969253255876939 0.9533318587980539 0.042533382979043896 -0.3972222003416535 -0.3330832455664565
00000000: 8b4f daa7 d4ef dfbf 079c 4f52 9be5 c7bf
00000010: 7f5c 9752 b4c6 5fbf 6272 e221 4cd1 db3f
00000020: a5a3 98d0 49a0 e6bf 4411 9dbb 6abf f43f
00000030: da27 aab1 4ea7 b33f d62f 5604 0992 cb3f
00000040: a7e0 1927 14e1 abbf 5f5a 383b bc47 cabf
00000050: 9e52 3a53 f2af e8bf 3d72 5e39 faf0 e23f
00000060: 5a95 8cda 191a ee3f 9ca9 500c 8335 d7bf
00000070: 3ef8 cfb8 ff57 ecbf 7ca9 e8c2 6a6d f2bf
00000080: e93b 45d0 a23b aebf a402 9cd2 26c4 a63f
00000090: fd5b 43a0 ee07 e6bf af99 dd0c 9ef1 e23f
000000a0: 7fab c27a 4671 d8bf e677 dba0 e6be f2bf
000000b0: 13ae 9647 c79f dc3f 2e52 2f78 ab61 d13f
000000c0: 9648 49b7 58ad f9bf 2333 e3b0 f197 dfbf
000000d0: 6744 8c5b 0cbb d93f 718f 7d78 0916 c73f
000000e0: 0339 f257 33e8 e33f 70dc 6413 a63e f5bf
000000f0: a8c5 82ed f34c eabf 578e 6e87 4121 c4bf
00000100: acdb ed1d 441a e2bf abfa 8b06 a10a f33f
00000110: eed4 f72f 40af d8bf ea37 958f 45bf f03f
00000120: 7c7c bbdc 999c db3f 23d7 1fca eaac ed3f
00000130: 1c44 17ee b0c3 e23f e914 7dca 302b d23f
00000140: 4626 da61 d085 f3bf 0084 cd73 6b96 d93f
00000150: 8632 8db1 a5cd e33f 6c9c 167b 3967 d93f
00000160: 94b8 78d0 b181 ee3f 9637 c481 efc6 a53f
00000170: 9d9a eda9 166c d9bf 046c a363 3c51 d5bf

UG f8 [1, 1]
-0.288784738457907
00000000: 10ae d0fb 727b d2bf

BG f8 [1, 1]
-0.0659820141248791
00000000: 8562 ca80 32e4 b0bf

WO f8 [1, 48]
0.10937904213986478 -0.2629107239748905 0.03494104281415487 -0.0751499183288678 0.5497043551100506 -0.6319444417420252 0.2262317577588191 0.43079109527104514
-0.09507768173403079 0.26273441559558286 0.025044757904747826 -0.4217504621564361 0.4508064986421674 -0.5066138270817859 -0.5297714013021717 -0.3236775988499601
0.2962776691585193 0.34557094100283303 -0.18982992006099822 0.3750144427970576 0.3513744703846605 0.06690662179863933 0.3590033302138739 0.7661664079164776
0.19781681982897106 -0.16984705535766834 0.4564101330714546 0.006371305609870241 -0.22598675972651047 -0.2714258597231902 -0.039477165271348404 0.019030249630471806
-0.22891179281678797 0.631750078427812 0.48318961482248307 0.22382652924970442 0.6393034883566578 0.684146780293612 -0.08354895073844834 -0.4424222233209325
0.056026541292629906 -0.20363937605509208 0.07938099990925143 -0.15623212397093245 -0.1442179438024075 0.23830655099784087 0.37614767230912455 -0.2437460258792995
00000000: 4dc8 dbd0 4300 bc3f 8159 4f80 87d3 d0bf
00000010: 8d90 59d8 cae3 a13f c401 8569 063d b3bf
00000020: 7553 7596 2d97 e13f a278 c58c e338 e4bf
00000030: 3003 7288 29f5 cc3f db37 66d0 1492 db3f
00000040: 7b8d a0cd 0257 b8bf a011 a102 a4d0 d03f
00000050: a66b 8c40 55a5 993f d039 82a6 f5fd dabf
00000060: 1c83 1f80 03da dc3f c090 6033 2e36 e0bf
00000070: 8c5d 5e27 e3f3 e0bf 6589 603f 22b7 d4bf
00000080: 6a8a e49c 36f6 d23f fa86 8394 d51d d63f
00000090: 956d 3bc9 584c c8bf 5bd3 d593 3c00 d83f
000000a0: 5ae4 bc58 eb7c d63f add0 82d8 ca20 b13f
000000b0: 861d 9b1a e9f9 d63f 3071 296a 6f84 e83f
000000c0: d5cf e1c1 0f52 c93f 99a2 0a5e 8cbd c5bf
000000d0: c6b6 c6d8 d235 dd3f 2bab a253 cc18 7a3f
000000e0: 135c 2d57 22ed ccbf b02f b391 0a5f d1bf
000000f0: 05f7 8edb 5936 a4bf 16bc 306f aa7c 933f
00000100: f48d e84b fb4c cdbf eff8 c2f0 4b37 e43f
00000110: 517b 5b22 94ec de3f c265 8d03 59a6 cc3f
00000120: edbc d696 2c75 e43f d7ca e0c9 87e4 e53f
00000130: 7e68 09cb 7663 b5bf 08f8 0b4d a550 dcbf
00000140: 38a3 1ec5 82af ac3f c8cf 2ae6 da10 cabf
00000150: 22b5 882e 5052 b43f 4417 850b 6aff c3bf
00000160: ac58 10cc bb75 c2bf 02a9 7a3d d480 ce3f
00000170: 9330 c2af cd12 d83f 643d d7dc 1133 cfbf

UO f8 [1, 1]
-0.652568919017431
00000000: 2b1c b236 d8e1 e4bf

BO f8 [1, 1]
0.29825965884135786
00000000: da24 1cae af16 d33f

accuracy f8 []
73.84
00000000: f628 5c8f c275 5240
