Model/models/model_LSTM.npz (npz, 5602 bytes, 17 tensors)

WF f8 [1, 48]
0.2381671879393914 0.08970926464470778 0.21174391606119639 0.09351262685216803 0.23169686809878942 -0.16344136594912415 -0.47697919913158715 -0.04215920842341464
0.11322941418186885 -0.1696924391177496 -0.15236724344830377 0.03485277493712268 0.4375093752426752 -0.04529350717383182 -0.17263354600880532 0.1298659650972179
0.7689416759614991 0.017021380371678253 -0.00026608204882397617 -0.08916151497209349 -0.06456587920514216 0.12551988694438823 0.08846534220814825 -0.10535785744376051
0.3004037363195344 -0.05221865855822267 -0.03687723342174222 -0.16350201140629544 -0.018668302451777596 0.47146150636499884 -0.33057846624221726 -0.04876774782369947
-0.193824699481347 0.12903429422594656 0.013401482363586827 -0.10844559042453693 0.07169079943483683 -0.0749653347684016 -0.17830310726443344 0.032093147047796464
-0.10718335132768797 0.1153545016407929 0.2425853302644555 -0.3011683436011898 0.11580145733199232 -0.11404173383425918 -0.025629230897902745 0.28042099914424695
00000000: 5009 972d 437c ce3f 3317 ccb5 2ff7 b63f
00000010: 2d0e 4eb5 6c1a cb3f 43d6 178a 71f0 b73f
00000020: 58f3 8833 3ea8 cd3f c353 c88c a5eb c4bf
00000030: b61d 49c3 d386 debf a8c0 ce4a e495 a5bf
00000040: c23a db56 9afc bc3f 7dd1 315a 7bb8 c5bf
00000050: 14cb cb13 c580 c3bf af40 0f11 39d8 a13f
00000060: 6a15 9752 2700 dc3f 7cc4 10e8 b530 a7bf
00000070: 3871 2625 db18 c6bf 235f 7aac 729f c03f
00000080: 7827 d992 2b9b e83f 6ad5 1d80 0d6e 913f
00000090: 32da 9fb2 1d70 31bf d2f0 ddfe 49d3 b6bf
000000a0: 6ba2 9fb3 6387 b0bf ed3d b620 0911 c03f
000000b0: be0a 9d27 aaa5 b63f 1bfb 1888 bbf8 babf
000000c0: bfab c597 d039 d33f d942 7f6d 67bc aabf
000000d0: a2d4 069f 92e1 a2bf 36fe e847 a2ed c4bf
000000e0: 5346 0292 c81d 93bf b646 cae1 6c2c de3f
000000f0: 1f6b 5195 3228 d5bf e835 0114 16f8 a8bf
00000100: 06f7 b66c 3fcf c8bf 1fa6 e11c 3284 c03f
00000110: f496 c183 3c72 8b3f dfcf 4418 17c3 bbbf
00000120: 0229 ff06 545a b23f 5ffa 299d ed30 b3bf
00000130: 00eb 3cdf a2d2 c6bf 56f4 fd51 836e a03f
00000140: 08cb a03c 5e70 bbbf 835b fe63 df87 bd3f
00000150: 34d3 fc3d 090d cf3f f0e2 9696 5746 d3bf
00000160: 90ee 1110 2aa5 bd3f ef80 32cd d631 bdbf
00000170: cdcc 1c92 8c3e 9abf 73ea 1beb 6af2 d13f

UF f8 [1, 1]
0.2654746843571403
00000000: b4b5 ce87 89fd d03f

BF f8 [1, 1]
0.16270599068070712
00000000: 2020 6bc6 8cd3 c43f

WI f8 [1, 48]
-0.14841691561734185 -0.4474394448136 0.3186122735505656 0.013927266331733032 0.3840205774026687 -0.052107199173022006 -0.01161635072431663 -0.08956511660699658
-0.1998640466988271 0.09029707607021877 -0.13394837177391414 0.007461633541133363 0.1680761169105093 -0.11946827694986377 -0.1661552011960807 -0.0567189087758239
-0.06361157086631018 0.03419053679805441 -0.22974108123363224 -0.384364049890401 -0.0944150571564762 -0.18451203197081026 0.43178863605835693 0.12262808881988607
-0.04869718189664168 0.13638463776899445 0.3684386578005913 0.1149913672196581 -0.1324406121959288 -0.21033746526398023 0.10171446324842424 -0.15119293241842718
-0.23060300488438706 -0.24322247118425744 0.1288796339038449 0.13502449810894931 -0.37112434432676544 0.4473637050624595 0.4701203309513456 0.43896811026184773
0.0809275159901973 -0.11489352924724693 -0.32115699365982237 -0.17406582726172135 0.13614833227410866 0.1484273229295232 -0.04289209363481405 -0.02340414710364577
00000000: 59f5 5f53 53ff c2bf 3a8c 9a0d d9a2 dcbf
00000010: a73f c0bb 2464 d43f 45fd 560b e685 8c3f
00000020: 36df 3b0b cb93 d83f c427 ab78 cbad aabf
00000030: afae ad33 50ca 87bf 8d81 b04e bded b6bf
00000040: e9dc 1b24 2595 c9bf 2961 a58c b51d b73f
00000050: 638a 0f62 3825 c1bf 68df 8a00 1790 7e3f
00000060: 8d45 afa8 8483 c53f 1bbd 6816 7995 bebf
00000070: 9746 99d9 9244 c5bf b591 83c4 420a adbf
00000080: e79a 8410 d948 b0bf 62ba c20a 6c81 a13f
00000090: c81a 39df 2768 cdbf 8364 02ac 6b99 d8bf
000000a0: 65ae bcce 952b b8bf d13d 841b 179e c7bf
000000b0: fcec a9cd 6ca2 db3f b069 0def 8d64 bf3f
000000c0: 978f 4e47 d6ee a8bf 7c83 7243 0d75 c13f
000000d0: b37b 75bc 7f94 d73f c1df 8701 1370 bd3f
000000e0: 0a99 0561 d0f3 c0bf a056 378b 56ec cabf
000000f0: 17a3 2e85 f509 ba3f 4ace 0f3e 4a5a c3bf
00000100: 123c 2b36 6684 cdbf 88c0 b1f7 e921 cfbf
00000110: 4f65 5eba 207f c03f 43b4 c495 7b48 c13f
00000120: 7281 6852 80c0 d7bf 2448 aa60 9ba1 dc3f
00000130: f9b9 a795 7316 de3f 91f0 63b3 0d18 dc3f
00000140: 0740 866a aab7 b43f e791 a38e a969 bdbf
00000150: b3a3 2910 d68d d4bf 0b5b b8fd c947 c6bf
00000160: b2d8 42fd 4e6d c13f 4856 e8a0 aaff c23f
00000170: 1f45 d6d6 f3f5 a5bf d78d 9ab9 41f7 97bf

UI f8 [1, 1]
0.2385345453326383
00000000: a4bf 95cb 4c88 ce3f

BI f8 [1, 1]
0.26281001240116264
00000000: 1ec2 1416 e1d1 d03f

WG f8 [1, 48]
-0.08290830192265757 0.28810838918054676 -0.026823264776640897 0.09831425884850648 0.19518951591591757 0.10892337804728822 -0.3297834225071652 0.19018694867088043
-0.09798762843764788 -0.45368828549262574 0.006762510986598586 -0.08007584041742515 0.00991777341617501 -0.13866668323539816 -0.16789740953268528 -0.27426720843816055
-0.16765171304558976 -0.06727713752096774 -0.5015329597506849 -0.06472526618746509 -0.2019512066800115 -0.2330680811168864 0.07264971884435761 0.3513952305691713
0.01059796164578074 -0.3536016551859169 0.09139320000399735 0.006945147724651344 0.05741580068935836 -0.21201704833607823 -0.1472242760846323 -0.4150055629025722
0.021634303990825998 0.2517381352290898 0.42288656706085015 0.1653999026861188 0.12017538901509035 0.017584246744684028 -0.39699019253245194 0.192863934758693
0.0631071661782195 0.39850712660730386 -0.168803504189401 -0.4972491716306308 0.34252293027934466 -0.0026609564171189374 -0.35877533577422993 0.034194419416965605
00000000: 1320 537d 7a39 b5bf c1f4 4e2b 5e70 d23f
00000010: 0653 f3d3 8e77 9bbf c41c 7c8e 1f2b b93f
00000020: 8fc2 b055 f8fb c83f 6ea2 7b0a 67e2 bb3f
00000030: 3099 9bed 2b1b d5bf 666f 55c2 0b58 c83f
00000040: 5a63 8d9b b715 b9bf 9239 3197 3a09 ddbf
00000050: 47a6 6bb8 01b3 7b3f f3e4 caab d97f b4bf
00000060: 65db c503 c54f 843f ce39 c572 d4bf c1bf
00000070: 0854 838d a97d c5bf f8da a60c 988d d1bf
00000080: 7b18 5380 9c75 c5bf ffc9 6b11 1339 b1bf
00000090: 4dd9 7fd9 8e0c e0bf bf03 80c5 d591 b0bf
000000a0: 8f08 0a82 89d9 c9bf 71ba 11c5 2cd5 cdbf
000000b0: 4407 8006 2c99 b23f 46f5 d06b 427d d63f
000000c0: 7914 6255 62b4 853f 5870 35d6 68a1 d6bf
000000d0: 7b0d 1875 8b65 b73f d704 7ee5 8372 7c3f
000000e0: 9f09 7894 9a65 ad3f d321 66e8 5f23 cbbf
000000f0: 88fa 7abd 3ed8 c2bf 8cc6 147e 738f dabf
00000100: 0004 7390 4d27 963f 01c2 7d44 7a1c d03f
00000110: 846b dcd1 9210 db3f 0734 66f2 d22b c53f
00000120: 9598 9a75 d0c3 be3f 76d9 c5d2 9a01 923f
00000130: b09d 708d 4968 d9bf 4ce8 2ef2 c3af c83f
00000140: d5f1 e08e ca27 b03f 5315 0009 2481 d93f
00000150: 62ca f86c 5a9b c5bf 3377 8730 eed2 dfbf
00000160: 0c83 eb4b e5eb d53f f413 3419 6ecc 65bf
00000170: 4ac0 70d3 2cf6 d6bf 9801 3452 ee81 a13f

UG f8 [1, 1]
-0.20882079387577934
00000000: d8ea 35c8 a3ba cabf

BG f8 [1, 1]
0.38346640601590737
00000000: 9ffd 3cae b68a d83f

WO f8 [1, 48]
0.322818200864755 -0.38891156317936526 -0.1013498272111236 0.3087319784784375 0.49282289876721114 -0.1165064323692437 -0.3685392134661835 0.24728254010081518
0.14715316997954894 -0.5938502261622612 0.500858797580326 -0.01322921555172408 -0.46367495781514906 0.13337987453582933 0.047275798072167335 -0.06379336872078734
0.44663867208652336 -0.3110626226566101 -0.5001123285830015 -0.44491264648392737 -0.325164502082613 0.03859791928611657 -0.15605603442674926 -0.16237702170633078
-0.32947857184975166 -0.6509160322062317 -0.28753117355790025 -0.6434025751393253 0.3394989179918942 -0.3164951927615886 0.0385237439436925 -0.4143774270019941
-0.07203001053587788 0.17896697210429388 -0.5576557790362597 -0.4743519215344441 -0.4637245555357329 0.44730955302610736 -0.06407950862242474 0.13379652155824268
-0.22652863467894566 -0.21161372168489198 -0.16464666330275585 0.14848832630085254 0.4479750008265664 -0.023208242634928763 -0.043904080160716265 -0.12202141547101236
00000000: b221 d1ab 0da9 d43f 2a10 3953 ede3 d8bf
00000010: 06b8 53f1 0ff2 b9bf 3cd5 b2c5 43c2 d33f
00000020: af34 3b0e 698a df3f 7dae cc94 5dd3 bdbf
00000030: 5f5f 487f 2596 d7bf 686a 4d4b f4a6 cf3f
00000040: 5f4e 4842 ead5 c23f 09da 8230 d200 e3bf
00000050: 2eaf 7007 0907 e03f 45ce 2b41 eb17 8bbf
00000060: 5f93 f2ba d9ac ddbf 64b9 897b 9712 c13f
00000070: f479 398d 8834 a83f e881 5b20 c354 b0bf
00000080: 1f64 6f5e ba95 dc3f 3a5c d433 73e8 d3bf
00000090: 89e4 f291 eb00 e0bf f26a 8ee4 7279 dcbf
000000a0: e3f4 90c5 7ecf d4bf e216 0e42 1bc3 a33f
000000b0: 4a69 1ae6 a4f9 c3bf 92df ec2e c5c8 c4bf
000000c0: 43f5 b44a 2d16 d5bf 3692 d8db 4dd4 e4bf
000000d0: 64bf c026 e966 d2bf b656 4cff c096 e4bf
000000e0: 555d 73ab 59ba d53f af24 900d 7541 d4bf
000000f0: 3e1c b758 62b9 a33f f625 4be6 2885 dabf
00000100: 8806 950b 8f70 b2bf 5f44 20c6 63e8 c63f
00000110: 3e5b acee 50d8 e1bf a540 7229 c85b debf
00000120: ee32 18c2 a9ad ddbf 61df 5b3f b8a0 dc3f
00000130: 4987 e0c1 8367 b0bf 92a2 3492 3e20 c13f
00000140: 77dc c6ea e3fe ccbf 1bbf 028f 2816 cbbf
00000150: 36f3 2351 2413 c5bf 6164 a65c aa01 c33f
00000160: 7871 7e56 9fab dc3f 4f67 75cc e6c3 97bf
00000170: c508 e778 987a a6bf 7c10 dca4 cb3c bfbf

UO f8 [1, 1]
-0.00818647606217727
00000000: 85fd a637 12c4 80bf

BO f8 [1, 1]
0.4558330266638252
00000000: 024d 7d49 5e2c dd3f

Long_mem f8 [1, 1]
2.5119925096904896
00000000: 4757 6787 8f18 0440

short_mem f8 [1, 1]
0.9262060774394599
00000000: 81af 7eed 7aa3 ed3f

mean f4 [1, 48]
0.50295895 0.52142733 0.46803862 0.5379431 0.5001501 0.58345014 0.4308632 0.39591774
0.36176127 0.52573895 0.4560977 0.40411642 0.5406842 0.42168716 0.43936592 0.3725254
0.5789302 0.035944536 0.38953757 0.5217264 0.3012485 0.4876177 0.2656601 0.5898992
0.23618656 0.42505157 0.45306206 0.36368126 0.4936707 0.43542784 0.3179082 0.45128343
0.5085775 0.54990333 0.5399089 0.45236892 0.44506395 0.21801426 0.42600235 0.42896414
0.5040843 0.48597354 0.5882767 0.6092943 0.47548702 0.27026847 0.3918526 0.5074025
00000000: ebc1 003f 437c 053f c2a2 ef3e a4b6 093f
00000010: d609 003f fd5c 153f 1a9a dc3e bbb5 ca3e
00000020: c638 b93e d496 063f a385 e93e 59e8 ce3e
00000030: 486a 0a3f 61e7 d73e 92f4 e03e a6bb be3e
00000040: c534 143f 943a 133d 7871 c73e dd8f 053f
00000050: 3e3d 9a3e 07a9 f93e 9a04 883e a203 173f
00000060: e4da 713e 5ca0 d93e c0f7 e73e 6e34 ba3e
00000070: 68c2 fc3e 66f0 de3e ddc4 a23e 9f0e e73e
00000080: 2332 023f 77c6 0c3f 7837 0a3f e69c e73e
00000090: 6cdf e33e 213f 5f3e fb1c da3e 30a1 db3e
000000a0: ab0b 013f 86d1 f83e 4d99 163f b6fa 1b3f
000000b0: 0973 f33e a160 8a3e e7a0 c83e 21e5 013f

std f4 [1, 48]
0.20429234 0.19949344 0.19437508 0.2626098 0.21553126 0.1948594 0.20871961 0.18895482
0.19833301 0.2074459 0.20751458 0.16257958 0.21655078 0.27309212 0.2547512 0.20672242
0.25378954 0.02293924 0.17637725 0.36712152 0.26043808 0.24919997 0.07421328 0.19470303
0.1541573 0.27048367 0.31108245 0.22082742 0.21485056 0.23569281 0.20686507 0.18434133
0.28329465 0.16377716 0.17043512 0.25366044 0.25278848 0.23226956 0.19155233 0.29623014
0.2960632 0.22637764 0.22113022 0.1899116 0.20107603 0.19175151 0.10543628 0.2748386
00000000: 0332 513e 0248 4c3e 430a 473e cb74 863e
00000010: 3ab4 5c3e 3989 473e 98ba 553e 5f7d 413e
00000020: cf17 4b3e b36c 543e b47e 543e 437b 263e
00000030: 7dbf 5d3e bbd2 8b3e c06e 823e 0baf 533e
00000040: b4f0 813e 13eb bb3c 3d9c 343e 5af7 bb3e
00000050: 2458 853e 472e 7f3e 22fd 973d 3b60 473e
00000060: 69db 1d3e d67c 8a3e 3346 9f3e 9520 623e
00000070: c901 5c3e 7559 713e 70d4 533e f9c3 3c3e
00000080: ff0b 913e 33b5 273e 8b86 2e3e c8df 813e
00000090: 7e6d 813e 12d8 6d3e 4b26 443e 7aab 973e
000000a0: 9995 973e 8acf 673e f66f 623e 3078 423e
000000b0: e0e6 4d3e 825a 443e faee d73d a5b7 8c3e

accuracy f8 []
75.73
00000000: 1f85 eb51 b8ee 5240
