Model/models/model_LSTM.npz (npz, 5603 bytes, 17 tensors)

WF f8 [1, 48]
-0.1047894492510605 0.08950297977257579 0.14969760868724205 0.21653864827498007 0.003859613735756 0.1484152785593575 -0.2760666424101992 -0.39946186043974763
-0.034915810778920725 0.19323003043629014 0.14405756010728357 0.19926629240599494 0.14455514098640698 -0.10376532034396528 0.2702209965049711 -0.21223194462995865
0.159693534211534 0.028245206710716838 -0.010422824716391903 0.21198427096728562 0.03742682984050404 -0.04453633556049155 0.06646377510339345 -0.08825270973144338
0.018043342017651825 -0.06715246089680559 0.037618012446115824 -0.21773779661828255 0.032187949524571206 0.09908122045942987 -0.08129736562882411 -0.02452524985704059
-0.3553528349680068 -0.13631242912330488 -0.20052838847480456 0.17093566759350842 1.884965517426454e-05 0.2014767933494597 0.2526615441923354 0.2718884016834913
-0.07567963040429997 0.25484704320858437 -0.01625208802993985 -0.5732341475169336 0.5315909664882266 -0.023313425818633254 0.10500834368896432 -0.04813901250142864
00000000: b9c8 7f39 7bd3 babf 168c 04d3 aae9 b63f
00000010: 2df1 cc8e 4a29 c33f 799e 54d6 89b7 cb3f
00000020: 8a01 a658 329e 6f3f 56d0 d197 45ff c23f
00000030: f4c5 2a6c 13ab d1bf 52a2 a57a c890 d9bf
00000040: c44c d132 7ce0 a1bf 0f1b aafa c2bb c83f
00000050: c97f b366 7a70 c23f 191a 8ad0 8e81 c93f
00000060: 40ad 8069 c880 c23f 6317 5631 5d90 babf
00000070: c09b ab01 4d4b d13f 6c13 ad96 6a2a cbbf
00000080: f11c 6975 d670 c43f bf7a 5dbc 4fec 9c3f
00000090: 498d 4fda 8f58 85bf 0e13 89f3 4c22 cb3f
000000a0: 1fdb 5004 9c29 a33f a496 6e71 77cd a6bf
000000b0: f311 701c c503 b13f 4f76 14c6 ba97 b6bf
000000c0: cb63 812f f479 923f 97cf 6557 e730 b1bf
000000d0: 3da7 640a ab42 a33f 5110 ca05 d5de cbbf
000000e0: e710 115d f07a a03f 6561 8509 635d b93f
000000f0: f472 a076 e7cf b4bf 14b6 3fa8 251d 99bf
00000100: 539f 2ed1 19be d6bf 98bb 8f88 af72 c1bf
00000110: 7f9d 350b eaaa c9bf 9c5b 044f 38e1 c53f
00000120: 50e1 b270 eac3 f33e 6960 2bd7 fdc9 c93f
00000130: ffd3 5053 9b2b d03f 8d1b 599c 9e66 d13f
00000140: 6351 8f81 bd5f b3bf f50a 04f9 694f d03f
00000150: 673b 522a 63a4 90bf 3424 9123 ef57 e2bf
00000160: 964f fd0e cb02 e13f 9b85 cb85 79df 97bf
00000170: cb83 f3a9 d3e1 ba3f 35f3 b538 ada5 a8bf

UF f8 [1, 1]
0.3105933704318627
00000000: 2dfe 1604 c3e0 d33f

BF f8 [1, 1]
0.26282189178224696
00000000: a12a 78e9 12d2 d03f

WI f8 [1, 48]
-0.1481495001421686 -0.09792122375259503 0.007131974693678019 -0.16025140684079978 0.5870627483980143 0.2760858423524318 -0.12754274314484434 -0.16649062000341472
-0.08937241112865604 -0.06542310862759224 -0.2356817492577752 0.19622602285279522 0.14857808869372613 0.02848817847642363 0.1429847003926222 -0.04952988646601451
0.3073132005522105 -0.06706524258024732 -0.3554392855850954 0.0451700061418949 -0.15840742158331475 -0.07917809839427616 -0.14452605961029194 -0.26050669359099266
0.10357751179700332 0.07682791033585991 0.11916402493399449 -0.30014916267062747 -0.1364213124403024 -0.40188879808642514 0.13083713050723073 -0.25634194791387194
-0.3654832904983342 0.13154869401276337 0.11438496544439433 0.07036493823299146 -0.08740144023465897 -0.060323613510868124 0.0742640257872467 -0.21342743932390357
0.1094236024730569 -0.23103438693200967 -0.20459916085428861 0.05337591949247939 -0.2447099811516175 -0.10055149112633614 0.12030010841764055 0.17589037841524638
00000000: 1ec2 0315 90f6 c2bf 9f08 9a85 5d11 b9bf
00000010: 2240 0be1 6a36 7d3f fd75 c23b 1e83 c4bf
00000020: 1938 22d1 37c9 e23f 25b5 f2f3 63ab d13f
00000030: 1f1a 5313 5253 c0bf ebb1 008c 904f c5bf
00000040: a255 f63e 1ce1 b6bf 3e4a f59f 91bf b0bf
00000050: 79c1 a9ce d12a cebf 9871 632f ef1d c93f
00000060: 2cbe eb57 9b04 c33f 69f1 834b 012c 9d3f
00000070: bbe0 019a 524d c23f bd9d 1735 fb5b a9bf
00000080: a70d 80fc 04ab d33f 9c99 940f 302b b1bf
00000090: 3c4d d36a 84bf d6bf 1c74 47e6 8520 a73f
000000a0: 4b6f 92c3 b146 c4bf e9b2 290f 0445 b4bf
000000b0: e714 b975 d47f c2bf aa31 5744 24ac d0bf
000000c0: 35e9 c449 0e84 ba3f 8902 5072 feaa b33f
000000d0: 2184 f395 8881 be3f 71e5 65d5 a435 d3bf
000000e0: 9f49 b4e9 4076 c1bf 833c 1acb 8bb8 d9bf
000000f0: eac5 5066 45bf c03f 5383 b80e e867 d0bf
00000100: 2330 fb06 1464 d7bf e4e3 4e6d 96d6 c03f
00000110: 16de bc45 5548 bd3f 05ea 7ec4 6f03 b23f
00000120: 6d60 6ed7 f05f b6bf 7054 6996 bce2 aebf
00000130: d288 069a f702 b33f 5a8b fb1f 9751 cbbf
00000140: c543 086a 2f03 bc3f 0eec 0fe8 8892 cdbf
00000150: 5340 5428 4e30 cabf f96e 3aa9 1654 ab3f
00000160: 4d86 061b a852 cfbf 339f f315 bebd b9bf
00000170: c4e8 5be7 fccb be3f f9bd 7c6f 9383 c63f

UI f8 [1, 1]
0.29991591365293785
00000000: f31d 2c84 d231 d33f

BI f8 [1, 1]
0.2569639924134003
00000000: c291 ea19 1972 d03f

WG f8 [1, 48]
-0.06176018474821315 -0.417971635406612 0.35222981110613744 0.04647424341321916 0.1385785000638803 0.12393573115236786 -0.32928749061281326 -0.03908155425593736
0.17195310409329256 0.012805977938775874 0.35426629081345445 -0.08373642651082573 0.07912169803262756 -0.20243036819693586 -0.08895390568604512 0.09290517107977596
0.0948230063476099 0.05391907410114779 -0.22070411064886616 -0.3151440805506737 0.4810538406429668 -0.13996597355418774 0.011016558939653706 -0.015639069686917237
-0.15513248917352052 -0.23686728189337258 0.1555434258475387 -0.018836427397322046 -0.07889739334146847 -0.5083218080562875 -0.2625309067214969 -0.09593972684494036
-0.34613415330852354 -0.36651047296694833 0.5322993379855253 0.3941649238662504 -0.25226776474217755 2.2506868687764602e-05 0.024225717883619945 -0.3006126948706083
0.008522161597040976 0.008709507559999637 -0.07113936553488516 -0.32171425050983915 0.3354813240816843 0.028049566982219037 0.00020564792919130896 -0.2901946756120649
00000000: 3782 60eb 079f afbf ba87 2e1a 0cc0 dabf
00000010: b322 d8e7 ee8a d63f 71da 21d7 78cb a73f
00000020: 2dff d9b6 f0bc c13f def2 1a88 40ba bf3f
00000030: fe7d cad6 0b13 d5bf 6aec cf5a 7f02 a4bf
00000040: 4460 432f 8f02 c63f e9d0 8543 053a 8a3f
00000050: e59d 4785 4cac d63f 3b10 591d c06f b5bf
00000060: 6641 74d1 5141 b43f 05c1 8f01 3de9 c9bf
00000070: 71e5 c5e3 aec5 b6bf 73bb 6a1f a2c8 b73f
00000080: e2df 2b0f 5246 b83f 6b41 cae7 479b ab3f
00000090: d331 aa44 0840 ccbf 7f8f df13 522b d4bf
000000a0: ad4f 4b0c 96c9 de3f a5e8 7baf 67ea c1bf
000000b0: c5d4 e182 d98f 863f 6c75 6133 b003 90bf
000000c0: 640f c6a3 61db c3bf b8ba 9cc6 aa51 cebf
000000d0: cdbd 8fd3 d8e8 c33f be74 943e db49 93bf
000000e0: 4e29 249c 9e32 b4bf 4240 ae18 2c44 e0bf
000000f0: 30b7 a36e 4ecd d0bf 49aa 2f85 818f b8bf
00000100: d347 1fdd 0f27 d6bf d335 c257 e874 d7bf
00000110: ab91 0a9f 9808 e13f 9518 4f84 ff39 d93f
00000120: 6bc5 d9b1 2725 d0bf 4c7e 3b3d a499 f73e
00000130: 630b 2168 a0ce 983f 01d4 4e07 3d3d d3bf
00000140: 72dc cd2a 1174 813f 7161 1351 4ad6 813f
00000150: a536 6e80 3036 b2bf c833 265e f796 d4bf
00000160: 0860 d6a8 8678 d53f 5b20 6c93 06b9 9c3f
00000170: c86f bf42 66f4 2a3f 9689 4eb0 8c92 d2bf

UG f8 [1, 1]
-0.008050338055301054
00000000: 2da6 5a15 b27c 80bf

BG f8 [1, 1]
0.15062633639904774
00000000: b306 604a b947 c33f

WO f8 [1, 48]
0.1619913548332291 -0.4402294068680899 0.01754143029231048 0.003108189352415619 0.23707755369835948 0.26965813965479873 0.27572350433616144 -0.1343915199365919
-0.26922839508413765 -0.32902530739785435 0.43911514525730616 -0.17176519386911512 0.408186562261736 -0.5731315748591795 0.08437006871309397 -0.15470847293755838
-0.02899332305878422 0.0052921991508260895 -0.19469209747106586 -0.7446956636733211 -0.13699941824971168 0.36928228004191793 -0.39382584475525545 -0.08979101003297985
0.06300018875080109 0.2572642517166563 -0.029757943212634183 -0.1765240496966673 0.0956002532256648 -0.6179058906450619 -0.6001656755448171 -0.28045663708439206
0.059827177270522135 0.17751673488202663 0.06464942668295345 -0.17088538639720574 -0.29821667004600694 -0.19297761967653282 0.34656568984103653 0.4991033288863633
0.4554410417733001 -0.13953703193677006 -0.42387528812021963 -0.4572229162454704 0.16480278405810594 -0.279113244497649 -0.39282741151400186 0.5110115116051227
00000000: 6329 9ff9 21bc c43f 6119 4ff6 b72c dcbf
00000010: c1de b875 61f6 913f daef c973 5876 693f
00000020: 8404 e0a9 8e58 ce3f 53b9 ba36 1442 d13f
00000030: 6030 7732 74a5 d13f ef62 7ec7 bd33 c1bf
00000040: bc9e 02bc 093b d1bf df20 b529 c00e d5bf
00000050: 25bd 0369 761a dc3f 3f25 21e1 66fc c5bf
00000060: 382c e587 ba1f da3f a567 4a07 1857 e2bf
00000070: 924e e2dd 4699 b53f 3328 d7bb 7ccd c3bf
00000080: 41ff 5bf9 6cb0 9dbf d56e 6de4 45ad 753f
00000090: 84c4 b6af abeb c8bf d265 1e00 8cd4 e7bf
000000a0: 820d 7a6a 3289 c1bf 336e f124 52a2 d73f
000000b0: fdc6 e250 7134 d9bf 4803 912b 8bfc b6bf
000000c0: ab96 53c6 c720 b03f 8b63 e37a 0477 d03f
000000d0: ecf4 93c3 dd78 9ebf 0ecc 330e 5798 c6bf
000000e0: d1f2 1719 4279 b83f fe70 0a93 e2c5 e3bf
000000f0: 11b2 94a5 8e34 e3bf 8a4f 0e65 00f3 d1bf
00000100: 03e9 93f3 aaa1 ae3f 12cf 674d deb8 c63f
00000110: 96f5 4e65 dd8c b03f 785c f884 92df c5bf
00000120: 4c0e 3e5f fb15 d3bf f470 af9a 7db3 c8bf
00000130: 8c1b f2db 212e d63f ff10 b916 4ff1 df3f
00000140: 230a eb2e f225 dd3f 35ea 5f76 59dc c1bf
00000150: 5bc5 03d1 c520 dbbf 0063 10e8 2343 ddbf
00000160: 52df e8f3 4118 c53f d9dc 3fcc fddc d1bf
00000170: bd32 5b95 1524 d9bf 2127 47d0 345a e03f

UO f8 [1, 1]
0.6097737724330338
00000000: a1de 5149 4483 e33f

BO f8 [1, 1]
0.7338361509550309
00000000: 182e 9ff3 957b e73f

Long_mem f8 [1, 1]
2.222484360706059
00000000: f9d4 68e1 a5c7 0140

short_mem f8 [1, 1]
0.9156758303695434
00000000: 3a98 2566 374d ed3f

mean f4 [1, 48]
0.504407 0.522914 0.46669006 0.5397547 0.50148535 0.58282 0.428965 0.39387554
0.362523 0.526504 0.45579302 0.4044456 0.5414099 0.42004678 0.43815798 0.37256336
0.5797864 0.035148885 0.38944286 0.5238912 0.30212492 0.48902476 0.27656507 0.5891382
0.2336993 0.4252998 0.45235255 0.36221704 0.4925343 0.4337222 0.318699 0.45122722
0.5102511 0.54924685 0.5396261 0.45278853 0.44439843 0.21504599 0.42538947 0.42704698
0.50589836 0.4864375 0.58801186 0.60887504 0.4759171 0.2676636 0.38987175 0.5068392
00000000: d120 013f b1dd 053f 00f2 ee3e 5d2d 0a3f
00000010: 5861 003f b133 153f 4da1 db3e 0eaa c93e
00000020: 9d9c b93e f7c8 063f b45d e93e 7e13 cf3e
00000030: d799 0a3f 5f10 d73e 3e56 e03e a0c0 be3e
00000040: e26c 143f 47f8 0f3d 0e65 c73e bc1d 063f
00000050: 1eb0 9a3e 7461 fa3e f099 8d3e c3d1 163f
00000060: df4e 6f3e e5c0 d93e c19a e73e 8374 b93e
00000070: 752d fc3e d610 de3e 842c a33e 4107 e73e
00000080: d19f 023f 719b 0c3f f024 0a3f e6d3 e73e
00000090: 3188 e33e 0435 5c3e a6cc d93e e7a5 da3e
000000a0: 8e82 013f 560e f93e f287 163f 3cdf 1b3f
000000b0: 68ab f33e 340b 893e 459d c73e 37c0 013f

std f4 [1, 48]
0.20349349 0.19858646 0.19366407 0.26166654 0.21499492 0.19502522 0.20708878 0.1867007
0.1984001 0.20754448 0.20789675 0.16284128 0.21671495 0.27248764 0.25460187 0.20715535
0.25397745 0.020863583 0.17674132 0.36636648 0.2606327 0.24877372 0.07702531 0.19475669
0.1496187 0.27102417 0.31154233 0.22013004 0.21458347 0.23471098 0.20693836 0.18472618
0.28270778 0.16380677 0.17073686 0.25411007 0.25310996 0.22818872 0.18987131 0.29536852
0.29535607 0.22673927 0.22155656 0.19019982 0.20138821 0.18788682 0.10112231 0.2752777
00000000: 9960 503e 405a 4b3e e04f 463e 28f9 853e
00000010: a127 5c3e b1b4 473e 150f 543e 782e 3f3e
00000020: 6529 4b3e 8a86 543e e3e2 543e ddbf 263e
00000030: 86ea 5d3e 8083 8b3e 2d5b 823e 8820 543e
00000040: 5509 823e 1bea aa3c adfb 343e 6394 bb3e
00000050: a671 853e 8abe 7e3e 72bf 9d3d 4c6e 473e
00000060: a535 193e aec3 8a3e 7a82 9f3e c569 613e
00000070: c5bb 5b3e 1358 703e a6e7 533e dc28 3d3e
00000080: 13bf 903e f6bc 273e a5d5 2e3e b71a 823e
00000090: a197 813e 4eaa 693e a06d 423e 8b3a 973e
000000a0: e938 973e 572e 683e b9df 623e bec3 423e
000000b0: b638 4e3e 6765 403e 3719 cf3d 33f1 8c3e

accuracy f8 []
75.21
00000000: 3d0a d7a3 70cd 5240
