Model/models/model_LSTM.npz (npz, 4463 bytes, 13 tensors)

WF f8 [1, 48]
0.2306740564913299 0.1360887842253504 -0.03553456717031899 0.6023556042490449 0.6463535754248649 -0.10891325325764871 -0.45933180554799236 -0.11333782152983311
0.06671245353614162 -0.1632464141768273 -0.18143764305700744 0.3737172755254669 0.07866934222468264 0.12832478806342223 0.06091085713364455 0.031867096548724584
0.1988530651666249 -0.3800086881570871 -0.26607851902138385 0.8928329999721022 0.10927005096315337 0.22557754690693313 -0.015734595489749027 0.025925334619388115
-0.03979728347356122 -0.4317836603369818 -0.29485213306212577 -0.23241842500513538 -0.5766169195194586 -0.46680021337704786 0.21458380418169118 -0.7355000812337346
-0.059277380570407406 0.17870638738882286 0.14553055850584665 -0.03884038015208932 -0.3026571253539712 -0.03363020377796414 -0.1207054619787912 -0.013873163916550139
0.21630024358237415 0.08464107384974236 -0.2787319413883307 0.13329348474655878 0.6430521549239429 0.377336561327052 -0.25223859382716773 -0.8743346064215948
00000000: d13c 553c ba86 cd3f ffd5 cc76 5b6b c13f
00000010: 8f81 bf37 9631 a2bf a1fb 9942 7f46 e33f
00000020: 6347 83b1 edae e43f 73b2 d72c bde1 bbbf
00000030: 2ed7 b53a b165 ddbf 43da de1c b503 bdbf
00000040: 2f74 2c3e 1114 b13f 4914 0a2d 42e5 c4bf
00000050: beb9 9843 5939 c7bf 2741 15dd fbea d73f
00000060: 2c87 0d8c ac23 b43f d2cf ff57 f26c c03f
00000070: 647d b836 b52f af3f f590 fd52 e250 a03f
00000080: 27cd cc69 0474 c93f c227 f5f5 0f52 d8bf
00000090: 775b 5732 6e07 d1bf 936e f582 1692 ec3f
000000a0: caa9 513f 1ff9 bb3f f5ad 569d b9df cc3f
000000b0: cd52 2dd4 ba1c 90bf ef00 50c1 2b8c 9a3f
000000c0: 0a28 fa3d 4f60 a4bf 700c 06ef 57a2 dbbf
000000d0: 4617 2a7b dbde d2bf ea43 310f e3bf cdbf
000000e0: ba00 7553 a573 e2bf 7318 8e00 0ee0 ddbf
000000f0: bf16 9b6a 7b77 cb3f e155 6377 3789 e7bf
00000100: 3c88 e2d5 9a59 aebf 31ed b5d4 d9df c63f
00000110: f9f4 acce bea0 c23f bcec 08e5 e2e2 a3bf
00000120: c9fc d2fd bb5e d3bf 25b2 c462 fa37 a1bf
00000130: 3ac1 a59b 8de6 bebf 8250 828a 8869 8cbf
00000140: fecc 26f4 b9af cb3f 253d 1594 09ab b53f
00000150: 1443 277f bed6 d1bf e8cf e0ca c20f c13f
00000160: 3fa9 e01c e293 e43f bf06 9f3f 4826 d83f
00000170: aab5 d157 ad24 d0bf dfef 8a91 8cfa ebbf

UF f8 [1, 1]
0.7928919615016082
00000000: 7124 7df6 5e5f e93f

BF f8 [1, 1]
-0.1577877940832967
00000000: ddda a5f3 6332 c4bf

WI f8 [1, 48]
0.5853898935077265 0.2822036428677149 0.4153329366230279 0.6033219403138905 -0.012965924706058582 -0.32207357001847 -0.12767341263763604 0.1283084826568694
0.02888358687124429 0.010100301043112133 -0.2684728189830501 0.03816699332178941 0.3960386788183637 0.14619737538401378 -0.1056055036572352 -0.17233453489902947
-0.13969952857729337 0.13528290445846478 0.004766499009243435 0.27404959233066484 0.5513492218145584 0.37250941134253707 0.217026137998702 0.4852441208821357
-0.20723625615699875 -0.3985914349469744 -0.1652334611770861 0.382428285540943 0.3261907370707359 0.40495697004357073 -0.06756560593136314 0.41222057334403994
0.5419216487056234 -0.14629924335329475 0.12685532593826412 -0.20697584763668667 0.3436676800325349 0.76657542595655 0.22578218317235926 -0.11904691381840028
-0.2578315374689887 -0.03660175995371015 0.2969366047987654 -0.17020108738537917 0.40033009598505714 -0.007828120167128076 0.48319673719503814 0.4543791095652639
00000000: 97c9 0096 83bb e23f 1573 3bde 9f0f d23f
00000010: c9d7 ef98 d094 da3f 0470 53d0 694e e33f
00000020: ab6f 99f4 e08d 8abf aba8 8876 da9c d4bf
00000030: 4a76 ec35 9a57 c0bf f6c2 6790 696c c03f
00000040: c93e 03b4 a893 9d3f d184 4775 77af 843f
00000050: 8c6a 599e a82e d1bf e01c 35c8 9f8a a33f
00000060: 7975 5e9d b258 d93f 2887 0479 98b6 c23f
00000070: 6045 7c58 f608 bbbf 076d aedb 0e0f c6bf
00000080: a3c7 4095 ace1 c1bf 23b2 2d41 f350 c13f
00000090: 9222 c755 0986 733f aab5 224d 078a d13f
000000a0: 64cb 8b1f a7a4 e13f 33c7 cab6 31d7 d73f
000000b0: 2172 8a32 83c7 cb3f 79f6 705b 3d0e df3f
000000c0: 62b1 5eb7 b786 cabf a507 64a6 8582 d9bf
000000d0: b2f0 fabb 5e26 c5bf 42ad dd7c b479 d83f
000000e0: 4786 fe1c 4fe0 d43f f9f5 a7a3 d0ea d93f
000000f0: cd43 cfc3 fa4b b1bf ba10 5066 d261 da3f
00000100: f5eb c511 6c57 e13f 9ee3 d000 efb9 c2bf
00000110: c937 1d9a cb3c c03f 55aa 5440 2f7e cabf
00000120: bca4 9bb9 a6fe d53f 24d2 0c30 c987 e83f
00000130: 7254 5f3a 6ee6 cc3f b12d 8ac9 db79 bebf
00000140: 0ea1 53d9 4f80 d0bf 2c57 f443 77bd a2bf
00000150: 7024 a663 0201 d33f f72b 0834 26c9 c5bf
00000160: 2910 771f 029f d93f bc14 db80 3008 80bf
00000170: 9557 f201 b2ec de3f d160 e41d 8c14 dd3f

UI f8 [1, 1]
-0.12825973178712335
00000000: c4af b59c d06a c0bf

BI f8 [1, 1]
0.34546922891958215
00000000: ebf8 fef7 2a1c d63f

WG f8 [1, 48]
-0.8802274396857814 0.014006432662008109 -0.3060225285499663 0.11189940952333371 -0.48601213663272463 1.2497276543603622 0.26354469060801944 0.3884781663657204
-0.15669698952043198 -0.26142232591991815 -0.640975762158048 0.3038686003950358 0.6071846763483311 -0.7632491355526788 -0.8148123998465562 -0.419619247448259
-0.588505644470355 -0.09361255100112578 -0.1505276770011992 0.7017717135627847 -0.2066801693078628 -1.2164922858457228 0.3950131354466788 0.4485665771787752
-1.9854282854449858 -0.8827852746249517 0.9422132214443655 -0.19090384455575368 0.15444890534493302 -1.0448606003823953 -0.9141384080874894 -0.24660887986492408
0.25736906851447267 1.0074976679865257 0.14636056620968527 0.36163786090693106 0.2920306922145274 1.7429826855677824 0.1463937169345205 0.19343624380026656
-1.3621666244252724 -0.013829146856513541 0.9098665966571545 0.33023401990282675 0.6584234379369371 0.7221854060144207 -0.5066248108531186 -0.18615675821958283
00000000: 76c0 4fbc d22a ecbf d550 bc91 67af 8c3f
00000010: 7586 fd83 df95 d3bf 842c 5890 70a5 bc3f
00000020: 15fc 12a6 d21a dfbf 1b27 c66c e2fe f33f
00000030: 5489 cc8c eadd d03f 600d f086 d3dc d83f
00000040: c09a af9e a50e c4bf 9f4c 11b5 24bb d0bf
00000050: 71eb ff99 df82 e4bf 1697 3e49 9572 d33f
00000060: b68c f18e 0e6e e33f d3c4 7c73 896c e8bf
00000070: 64eb 3674 f112 eabf 6dfe 23b0 0adb dabf
00000080: d95e 10ca 09d5 e2bf fa82 0bfd fdf6 b7bf
00000090: d976 eeac 7d44 c3bf 3f52 e0f3 e974 e63f
000000a0: 8f5a f4eb 7e74 cabf d8b2 789d c076 f3bf
000000b0: 48f8 8e2c e547 d93f 9bef c396 50b5 dc3f
000000c0: 11a2 2873 50c4 ffbf 0bf2 7ce7 c63f ecbf
000000d0: 9ecb 7e57 9c26 ee3f bb18 8684 896f c8bf
000000e0: ab03 ae52 fbc4 c33f 4c57 b8bf bfb7 f0bf
000000f0: c71a d830 9f40 edbf 3c26 f638 e190 cfbf
00000100: 9b62 111d bc78 d03f 39c6 ecdf b51e f03f
00000110: cbb6 a56a f1bb c23f 78cd 6520 1325 d73f
00000120: 3656 1f80 a1b0 d23f 4320 00d0 41e3 fb3f
00000130: 436d 4981 07bd c23f 67da 7dd2 84c2 c83f
00000140: 87bf f93a 6fcb f5bf 20ab d7ab 7452 8cbf
00000150: 8db0 8b8d a01d ed3f 9e97 e0de 8d22 d53f
00000160: 2e7d 9b07 ce11 e53f 975f 8f91 241c e73f
00000170: 429a 3e3c 4536 e0bf 26c2 3d12 fcd3 c7bf

UG f8 [1, 1]
-0.10816165351855053
00000000: 0e20 8b6c 7bb0 bbbf

BG f8 [1, 1]
-0.14358163018798137
00000000: 0a5c fb02 e260 c2bf

WO f8 [1, 48]
0.33289977517013797 0.613907323753535 0.4383200909374252 0.16706551499078 0.4451367079442328 -0.0399950761353824 -0.046413071206313106 -0.13294641213846886
-0.19469672919421874 0.2656968264468668 -0.22050232811573978 -0.3060204671487055 0.42922206533702517 0.28426367849561324 -0.01934106210714564 0.24306912676978698
0.3642139121639748 0.16137217039798732 0.2606624995686408 0.06693617197256305 -0.1848837510102573 0.6661167409096209 0.40019348339114724 0.536382115456476
0.24161821529645797 0.14837164853361934 0.29259837674138306 -0.5035387682072222 0.258598356867874 0.3568911381905973 -0.10842668801174554 -0.24951064206644033
-0.17229798219016018 0.6474806988347103 0.1483844416555005 -0.29663409751668035 0.11242130293066778 0.6396826373612089 -0.01293650304332898 0.2282179073763352
0.5331809328404824 0.7455360353029612 0.3610544325319453 -0.07735027182480726 -0.32757347948917426 0.06496850598502336 0.33140780377188 0.43073276864432875
00000000: 4de5 ccdb 3a4e d53f 6d7b c9f8 20a5 e33f
00000010: 1862 f0b5 6f0d dc3f c75f 961d 6762 c53f
00000020: 41a7 b7ac 1e7d dc3f 5947 0110 3c7a a4bf
00000030: 0046 e03d 74c3 a7bf 66ac 2056 6304 c1bf
00000040: cf7f 438a d2eb c8bf c360 0f43 2d01 d13f
00000050: a477 f997 6b39 ccbf 7ddc 93de d695 d3bf
00000060: b505 56d3 5f78 db3f 8913 a548 6031 d23f
00000070: ae60 e1b4 24ce 93bf a45e 129f e31c cf3f
00000080: ee84 5fde 474f d73f bf04 2ce1 d7a7 c43f
00000090: 2338 bcc3 b1ae d03f a6a5 8a9d ba22 b13f
000000a0: 734f 1350 45aa c7bf 34cc 300e d450 e53f
000000b0: de2f cf20 c59c d93f 7f6f 81d3 0a2a e13f
000000c0: 6378 687e 58ed ce3f 1281 0d99 d7fd c23f
000000d0: 23e2 bd8a eeb9 d23f 09fb b655 fd1c e0bf
000000e0: b0ff 621f e08c d03f 79b1 b0ed 4dd7 d63f
000000f0: a427 06f7 d9c1 bbbf 0ff4 d6f7 f6ef cfbf
00000100: 2e36 563b dc0d c6bf 6b29 4971 29b8 e43f
00000110: d9a2 12ea 42fe c23f 849b ed94 0dfc d2bf
00000120: 51ff 757b a4c7 bc3f 2922 e9b8 4778 e43f
00000130: d732 f70b 747e 8abf 4d7e 4590 3e36 cd3f
00000140: 14d2 ac75 d10f e13f fab3 3363 6edb e73f
00000150: 1b3c f30c 841b d73f 8902 d337 3acd b3bf
00000160: f858 5cc1 f6f6 d4bf 91c4 79a8 c6a1 b03f
00000170: e5b8 b513 c935 d53f b425 a92c 2091 db3f

UO f8 [1, 1]
0.4978845819322279
00000000: 2338 254b 57dd df3f

BO f8 [1, 1]
0.29843020122125713
00000000: 6f93 98fc 7a19 d33f

accuracy f8 []
72.57
00000000: 14ae 47e1 7a24 5240
